log/our_model-v11-model_best.pth (torch_old, 208096 bytes, 13 tensors)

encoder.0.weight f4 [108, 108]
00000000: 1e55 283d e7bf a8bd c124 6a3d f70a bd3a
00000010: 7476 2ebe 4f14 3e3e 8549 febc 7000 2f3d
00000020: 53d1 d93c e1b9 123d b580 a7bd 9830 f23d
00000030: 1894 ea3c 197c 06bd 74f0 e6bd 53b9 9dbb
00000040: c5da db3c 79b6 f8bd 7190 82bd 5e14 ddbb
00000050: 5a8f 953e c414 88bd 9e0d 0e3e 595f 43be
00000060: 7aed 3ebd f843 7bbd 8779 803d 2438 8d3e
00000070: ee47 37be fd87 8dbd 2f59 2f3d 8a53 883c
00000080: 8891 33be c1a6 2e3d 3ccd 2d3e 7b37 5d3e
00000090: 7fbb 9a3d fe53 0b3e c747 8a3d 2d72 09bc
000000a0: 53d5 613e d53a 063e f76e d53d 16ae a3be
000000b0: e59e e1bd 6d2f 663d b753 313c 20f7 fcbd
000000c0: 86c4 28bd 372b 9fbc 8f23 7d3d 9a2e 8ebc
000000d0: 9986 95bd d708 22be c72a c2bd 0048 fdba
000000e0: 797d 893e 1479 88bd 1008 883d 0c59 97bd
000000f0: b252 d3bd 6208 643d 4809 56be 94d0 a23d
00000100: be92 ae3d 45e1 82be 75ce d83d 2a33 353d
00000110: d238 d4bd e266 42bd b8a7 293c e32a 82be
00000120: 2026 32bb a27f 51bd cde2 b2bd 040c 5939
00000130: c68e 94bd 7e51 893d f4eb 953d fb15 063e
00000140: 5aaf 213d f3c9 693c f5c9 94be 59d6 f93c
00000150: 1272 7fbe ac3e 4a3e f0b4 743c 26ad 143e
00000160: 3949 763e 1a6c 9a3c 2f14 dc3c 8e59 063e
00000170: 576d 00be 3508 0a3d d1e1 2ebd de0d 88ba
00000180: 6bd8 a2bd 53c2 77bd 2f54 a1bb 138a 05bd
00000190: 0947 413d c694 1abe 1c72 8fbe 178b 0d3e
000001a0: ff26 023e 6ed9 ee3d 4ec6 a33d bcd8 153e
000001b0: 142d aebe 0870 473d fccc 7c3e 8448 6e3e
000001c0: eaa6 15be 3082 ba3d c366 403e fc6f 173d
000001d0: 7b19 0e3d 7c57 1c3d 4a9b b43c fc83 e93d
000001e0: 03a0 fc3d 273d dfbd 1d5a 5fbe a188 9dbc
000001f0: 95ab 8cbe 936c 0a3e 7147 063e 30d6 b2bd
00000200: 5145 84bd 5c06 31bc da4c 4e3d 0a23 9dbc
00000210: 8238 70bd 18a2 f5bd c6b8 bf3e 6645 c63c
00000220: 4e51 47be ac55 49be afa4 fbbd 83fe 213e
00000230: 7cbf 17be 6547 e6bc 90a6 5c3e e532 51bd
00000240: 4a58 433c bbc5 933d 1948 1ebd 1bd3 f8bd
00000250: d2b6 65bb 3de6 d0bd c174 903d ecd1 133c
00000260: 1a7e 063e 0e8d 07bd 3b43 42bd 5dcb b53d
00000270: 3e77 853d d1e9 80bd 2043 ac3d 94a5 91bc
00000280: 0cd9 903e 6087 273d 5890 0cbd 66de c23d
00000290: 4c32 663d 30ec b9bd 1c3c ebbd 9c3a 0ebe
000002a0: 5f50 95bc 68e5 cebd d276 ac3d d1db a0bd
000002b0: fe9e 15be e9c6 18be 3a83 733c 2a48 e23c
000002c0: 29aa c8bd ef10 e9bb 42b8 543d 6960 4cbb
000002d0: 1bea bdbd 2e26 65bd df56 30bc f0a3 83bd
000002e0: 56ba cabd d31a ca3c d4d5 43bd 5798 09be
000002f0: f7c3 32be f3f7 d73d 619c 5d3e f09e 6a3d
00000300: 9e62 2dbd 66fc 793c 571d d93c cf51 a5bd
00000310: 4980 e63d 652d 34be 2457 2fbe d564 61bd
00000320: 4afd 483e 2158 3f3e b944 c23d 6376 21be
00000330: 3761 ef3c e500 05be 0ac6 c3bd 9984 50bd
00000340: 1d75 06be 46ff 9fbc 5ea1 18bd fe3c 8abd
00000350: 27d9 9a3e 978e 0c3d 84ea 133d 3cb5 94b9
00000360: 13f9 90bd e32a 00be 6664 3c3e c261 493d
00000370: 56ad c63c 6685 eebc 25aa 59bd 8cf5 683e
00000380: c8d3 b63e 7774 333c b586 56be 2a65 c5bd
00000390: 9903 45bc 482d 8b3d 761b 753e c39a 1fbe
000003a0: 8420 883c 2d49 5a3e 230c f23c 63a5 17be
000003b0: 87f7 4ebe b279 acbc 2063 5bbe 7409 a0bd
000003c0: 32d7 193e 3185 acbd d3c0 1abd bea6 51bc
000003d0: 3c47 9d3d 69b3 92bc 2466 383e d20c 063e
000003e0: e885 72be 5df5 babc 93da 2abe ddde 053e
000003f0: e8d5 b03e 98d1 cebd a08a 93be b0ab e8ba
0.0410968 -0.082397275 0.057163958 0.0014422823 -0.17037374 0.18562435 -0.031040916 0.042725027
0.026589071 0.0358218 -0.08178846 0.11825675 0.02863507 -0.032833192 -0.112763315 -0.004813352
0.026837716 -0.12144179 -0.06375206 -0.0067468127 0.2921093 -0.06644586 0.13872382 -0.19079341
-0.046613194 -0.061344117 0.062731795 0.27581894 -0.17898533 -0.06910703 0.04280966 0.016641397
-0.17535985 0.042639498 0.16972822 0.21603195 0.07555293 0.13606259 0.06751972 -0.008389038
0.22054033 0.1310838 0.104215555 -0.31968755 -0.11016635 0.056197572 0.010823182 -0.12351823
-0.041203044 -0.019429786 0.06180149 -0.017356206 -0.07301063 -0.15823685 -0.094808154 -0.0019323826
0.2685354 -0.06663719 0.06642163 -0.07390031 -0.10318507 0.055672057 -0.20901978 0.07949939
0.085240826 -0.25562492 0.105862536 0.044238247 -0.103624 -0.047461398 0.010354929 -0.25423345
-0.0027183369 -0.05114711 -0.08734665 0.00020699209 -0.07253794 0.067049965 0.07320395 0.13094322
0.03947387 0.01426934 -0.2906033 0.030497717 -0.24945858 0.1975047 0.014935717 0.14519176
0.2405137 0.018850375 0.026865093 0.131201 -0.1254171 0.033699233 -0.042695824 -0.0010380109
-0.07951435 -0.060488056 -0.0049233655 -0.03260238 0.047186885 -0.15095815 -0.28016746 0.1382259
0.12710188 0.11662565 0.07996808 0.14633459 -0.34018767 0.048690826 0.2468757 0.2326985
-0.14614454 0.091068625 0.187892 0.03697203 0.03469227 0.03816937 0.022046704 0.11402127
0.12335207 -0.10900336 -0.21811719 -0.019230189 -0.27474657 0.1351798 0.1311319 -0.08732259
-0.064585336 -0.010804739 0.05036626 -0.019181747 -0.05864764 -0.119938076 0.37445658 0.024203014
-0.19464609 -0.19661587 -0.1228727 0.15819745 -0.14819139 -0.028110215 0.21547914 -0.051073927
0.011922905 0.072154485 -0.038642976 -0.1214964 -0.0035051596 -0.102001645 0.07053519 0.009022217
0.13134041 -0.033093505 -0.047427397 0.08876679 0.06516884 -0.06294597 0.084112406 -0.01777915
0.28290594 0.040900588 -0.034317344 0.095150754 0.05620031 -0.09078252 -0.11486074 -0.13889545
-0.0182268 -0.101023495 0.08421101 -0.07854427 -0.14611432 -0.14919628 0.01486283 0.027622301
-0.097980805 -0.0071126143 0.051933534 -0.0031185395 -0.09273168 -0.055944614 -0.010762899 -0.06427753
-0.09898822 0.024670994 -0.047811344 -0.1343702 -0.17457567 0.105453394 0.21641685 0.05728048
-0.042330377 0.01525793 0.026503248 -0.080722444 0.11254937 -0.17595442 -0.17123085 -0.0550278
0.19627872 0.18685962 0.09485764 -0.15767817 0.02922116 -0.12988622 -0.09559257 -0.050907705
-0.13130613 -0.019530904 -0.037263267 -0.067499146 0.302438 0.03431567 0.036112323 -0.0002836379
-0.07078757 -0.1251636 0.18397674 0.049165495 0.024252575 -0.029116344 -0.053140778 0.22749919
0.3570845 0.01095306 -0.20949824 -0.09638436 -0.0120247835 0.06795746 0.23936257 -0.1558638
0.016617067 0.21316977 0.029546803 -0.14809184 -0.20211612 -0.021054123 -0.21424532 -0.07814303
0.15023497 -0.08423842 -0.037781548 -0.012796102 0.076796025 -0.017907815 0.18007714 0.13090828
-0.23683894 -0.022822076 -0.16684942 0.13073297 0.34538198 -0.100985706 -0.288167 -0.0017751362

encoder.0.bias f4 [108]
00000000: 3d3c d43d 1ebf bdbd 290c 0a3d 4748 b5bd
00000010: 9ca3 97bc 1de4 18bd e6e4 fabc 9fbc 1b3d
00000020: 6123 52bd 91b1 cf3d 203b 53bd c968 a9bd
00000030: 9aa0 4cbd 17ed 9ebc 8ffa b9bc e593 10bd
00000040: 0010 7bb8 a909 043c 50ab 8c3d 3acf 153c
00000050: 24a1 283d 6e2b dd3a d4a1 4dbd 3102 583d
00000060: 425d b63c 2410 063d 9c5a 8a3c 3340 9f3d
00000070: 2fe6 e43c f97b 203d 4177 68bd c607 8e3c
00000080: 3db1 a43d 5795 a63c 8d88 6c3c 9599 9e3d
00000090: c4f9 0d3d 9ee3 d93d fc0c 823d 4d10 833d
000000a0: f8f8 7b3d 34fc 993b 34f7 063d 226d 923a
000000b0: 8afa 5a3d 1a8e ec3b 3f50 7fbd e786 d0bd
000000c0: 22a1 85bb 9fbb 8f3d 98e6 2c3d 1f99 89bd
000000d0: 9523 b8bc 096e e43c 3480 74bd f538 b6bb
000000e0: 7b01 d5bb 6fc8 563b d778 82bc 17e2 93bc
000000f0: d9e3 24bc f5b2 103d b645 193d 7065 0f3d
00000100: 629d 75bd e608 92bb fda0 e03d d245 60bd
00000110: 21b3 e33c 6c95 9f3c 9e42 d13d c343 c2bd
00000120: 6f61 2c3d 8c53 9dbd 6123 9e3c 12a3 db3d
00000130: 9e9f 203c 4579 86bd 3a6f 09bc 81f0 f9bc
00000140: da23 db3d 4351 6fbc f907 9dbd 50c8 23bd
00000150: 1406 ce3d 3913 cc3d d23a 6ebb cdd3 6cbd
00000160: 77b5 0bbc b05a 893b 892d 4c3d 2419 843d
00000170: 65e8 59bd b3fc 96bd 667d 443d d2d6 1abd
00000180: 03d0 31bd 76dc ec3d 65c4 423d d571 533d
00000190: 03a7 38bd 8efd b83c c3de da3c 39c5 a7bd
000001a0: ad16 12bb 4f49 5dbd a770 9a3d 2038 e0bd
0.10363052 -0.09264968 0.033703003 -0.088516764 -0.018510632 -0.03732692 -0.030626725 0.03802168
-0.05130327 0.1014129 -0.051570058 -0.08271939 -0.04995785 -0.019400163 -0.022702483 -0.035297293
-5.9857965e-05 0.008058944 0.06868613 0.009143645 0.0411693 0.0016873905 -0.05020316 0.052736465
0.022261266 0.032730237 0.016888909 0.07775917 0.027941791 0.03918073 -0.056754354 0.017337691
0.08041618 0.020334883 0.014436853 0.07744137 0.034662023 0.10639118 0.06350133 0.063995935
0.061516732 0.0046992544 0.032950595 0.001117144 0.05346159 0.0072190883 -0.062332388 -0.101819806
-0.0040780464 0.07018208 0.0422121 -0.06718659 -0.022477904 0.0278845 -0.059692577 -0.005560989
-0.0065004206 0.0032773276 -0.015926762 -0.018052144 -0.010064089 0.035326917 0.037419997 0.035008848
-0.059964545 -0.004456627 0.10968206 -0.054754086 0.027795376 0.01948043 0.10217784 -0.09485581
0.042085107 -0.07681951 0.01930398 0.107244626 0.009803681 -0.06566099 -0.008388335 -0.030510189
0.107001975 -0.014606777 -0.07667536 -0.039985955 0.10059753 0.09964604 -0.0036350978 -0.057819176
-0.008527151 0.004191719 0.049848113 0.06450108 -0.053200144 -0.07372417 0.04797115 -0.037802525
-0.043411266 0.11565487 0.047550578 0.05162223 -0.04508115 0.022581842 0.02671755 -0.08191914
-0.0022291348 -0.05402499 0.07541018 -0.10948205

gat_layer.0.weight f4 [1, 14]
00000000: aec3 f53e 52e7 0b40 ac4e 42bf eb77 1cc0
00000010: 58b7 8a3f 12e8 eebf fa99 10be 22d4 173f
00000020: 859c cebf 72db 2140 e9ad aebe b38f 093f
00000030: b5ad f4bd 5ce0 d7bf
0.48000854 2.1859937 -0.75901294 -2.4448192 1.0837202 -1.8664572 -0.14121237 0.59308064
-1.6141516 2.5290189 -0.34117058 0.5373489 -0.119471945 -1.6865344

g_cop.off_diagonal_val f4 [91]
00000000: c913 b73e 3ed8 e93d 3b2f 273f 234f 4f3f
00000010: f12a 7b3f 655f 2f3f 6452 e83c f0c8 653e
00000020: 1e68 5e3f 4333 073f e674 e63e fa24 173f
00000030: 3bb1 353f 647e 093f bbe4 293f c644 203f
00000040: b6d3 5a3e 927d 6e3f 47cb 1a3f 8efe 853e
00000050: 30fa 003f 8191 043f 308b a93e 8e93 473f
00000060: a7bb 8bbd 4c3b f33e cab1 e83e c3be 9b3e
00000070: df53 603f dadf 643e 7803 db3d 3c22 a13d
00000080: 36a8 7e3f 5d71 643e 343f d83e 1956 d63e
00000090: 0f35 5a3f 73e3 a93e 2244 703e 2dab 523e
000000a0: af7c b63e c38c e03e 455d 763f 8bb4 5b3f
000000b0: ff38 443f a368 743f c3a7 823f 6849 513f
000000c0: b029 523f d811 703f 505a c23e 0ff4 783f
000000d0: 9636 ad3e f8cb 4f3f 15f7 cf3e 9232 313f
000000e0: af45 7d3f a4ac 283f cebd aa3e d142 243f
000000f0: 9bf3 4f3f 909f 573d af98 7e3e 3ba1 2e3f
00000100: c797 133f f1f6 3e3e 9b83 833f 3ac9 893f
00000110: d293 3e3f c660 cd3d 602c 503e 2dd0 7d3e
00000120: 4c1d cd3e 3348 773f f0a1 323f 924c 373f
00000130: 4eac 113f d82c 0b3e 10c2 6d3f ca0b 823f
00000140: 0b05 0f3f 666b 493f b8f8 273f 610a 923e
00000150: 52c1 e63e 4fff 5e3f c179 8b3f d520 513f
00000160: f0c8 843f c2a0 563f 730b c83e
0.35757282 0.11418198 0.6530644 0.8098013 0.981124 0.68504936 0.0283596 0.22439933
0.8687762 0.52812594 0.4501106 0.59040797 0.7097356 0.5370848 0.6636464 0.6260494
0.21369824 0.93160355 0.60466427 0.26170772 0.50381756 0.5178452 0.33114004 0.77959526
-0.06822901 0.47506177 0.45448142 0.30418977 0.8762798 0.22351018 0.10694021 0.07867858
0.9947542 0.2230887 0.4223572 0.41862562 0.8523721 0.33181342 0.2346349 0.20573111
0.35642 0.43857393 0.9623607 0.8582236 0.7664947 0.9547216 1.0207447 0.81752634
0.8209486 0.9377723 0.37959528 0.97247404 0.33830708 0.81170607 0.40618196 0.6921779
0.98934454 0.6588843 0.33347934 0.64164454 0.8123109 0.052642405 0.24862932 0.6821477
0.5765347 0.18648888 1.0274538 1.0764534 0.74444306 0.10028224 0.20329428 0.24786444
0.40061414 0.9659454 0.69778347 0.7160121 0.5690354 0.13591325 0.9287424 1.0159848
0.5586707 0.786795 0.6561389 0.28523543 0.45069367 0.8710832 1.0896531 0.8169072
1.0373821 0.83839047 0.39071235

g_cop.diagonal_val f4 [14]
00000000: bb41 7f3f d505 863f dfb7 df3f 2331 933f
00000010: 4e93 d93f 32a1 d23f a4a3 d43f 9bbc 863f
00000020: 7aa4 a43f 366c c03f f8db ed3f 98e5 d43f
00000030: 4adb d43f 99b5 d53f
0.9970967 1.047053 1.7477988 1.149937 1.6998079 1.6455443 1.6612439 1.0526308
1.2862694 1.5033023 1.8582754 1.6632566 1.6629422 1.6696044

gru.weight_ih_l0 f4 [162, 108]
00000000: b6ff 30bc e6f2 f83c 05e5 013e 2746 e3bd
00000010: a6f3 a63d d4c2 ce3c f5af 453e 0c14 70bd
00000020: 6277 b63d c77b 2fbb 66c1 86bc bc9b 0bbd
00000030: 3c3a 4a3e 1dbe 66bc ceb7 cebc 0fbc 653c
00000040: b17c a93d 4219 bebd cb71 da3d 9bf9 043e
00000050: 552f b13c c4d8 9a3d 91d4 ac3b f96c 93bc
00000060: b325 233e 86ee 303c f579 2c3e 9e90 bdbc
00000070: 1aa9 683d 3ef1 853d cc5c ff3b d752 ee3d
00000080: 7b15 6cbd cda0 093c 8008 34bd 7723 f83b
00000090: 26c4 ebbc 21f1 553e 99cb 823c 4966 073e
000000a0: b5e5 0e3e 3c29 cbbc 8b24 dc3b 88b4 d7bd
000000b0: 4fe3 a9bd e2e5 eeba c1e2 263c 8368 f1bd
000000c0: 109c ff3d e4c3 53bd 6608 e9bc 55d4 83bd
000000d0: 16d1 bd3c d00d 1f3d b001 983a 06e2 223a
000000e0: 04f7 90bd 7518 dcbc 77f4 673c aed9 08be
000000f0: bb9f fbbd 323b 1bbd c267 37bc 432c bebd
00000100: 4996 0d3e 930d 97bc e92e d4bd 30d5 b53b
00000110: edf6 43bb 91e3 aabd 27c1 09be d20f e93c
00000120: 4082 5d3d 494f fcbd 5837 9d3c 6727 843d
00000130: 71be 1b3e 040f b83b 7cb4 373c 3bba 44bc
00000140: 5541 273d 9736 fa3b 042d 293c cbcd dcbc
00000150: d6a9 92bc 1254 31bd b819 b23b f194 493c
00000160: 31b0 6b3c 9afa 993d 2ac3 433b b6e2 4abd
00000170: 9c9f 193e 4da1 21bc 7772 173d cd0e 2d3d
00000180: 1848 00bb 6b27 cf3d e8cf 813d 5648 f23d
00000190: 42b1 a33d 9ad8 13bd 6bb5 01bd acb5 e63b
000001a0: c2fd 313d 908f 093c b43c 063c 421f 22be
000001b0: 1dc5 6bbd 1ed4 c13c c51f b93d 58e2 863c
000001c0: 278e 013d 08ee 7abd 4fd7 ca3b 878e 2cbd
000001d0: 3548 2a3d 99a0 e73b 3fa7 333c 65f0 07be
000001e0: 2204 4abd 45e5 193c a015 223c 0f5c 343c
000001f0: 6db5 433c 104a 273b 7957 923a 5fa7 873b
00000200: 9ee4 a3bd 0a60 723d 5a7f e63d 4679 5e3c
00000210: 826f 873b 0245 33ba cfb6 6d3b c8c7 f23d
00000220: 1a49 303c 0b31 2a3d f367 363c b26f 0a3e
00000230: 0353 2c3c cff6 f03b 2ac8 5c3c c6c8 aa3c
00000240: a4e1 f83b f9ad 543b 22d6 1bbe 58e7 453d
00000250: 2a87 73bd 6139 61be d801 0a3c 9937 6f3c
00000260: 8560 1c3c 812f 6e3b 7dfe 78bd 3774 5abd
00000270: 835a 0e3d 94be feba b109 923b 4095 143b
00000280: 5ed0 b93c c30e 81bb 1ecc 243b 781c fd3a
00000290: 3ad9 c4ba 95a3 d4bc 14d2 003c 88b7 8fbb
000002a0: fe4f 753c ab87 1bbd fee1 963b acbf bd3b
000002b0: 592c 0abb b119 033b 6148 8c3d 2dce 523c
000002c0: a593 18bc a39c d4bc 3b0a b6bd c271 19bd
000002d0: 16e6 83bc b995 0abb 2aa8 483c 3cb5 99bc
000002e0: 0f90 5abc 705b ac3d 2d0a 5a3b 5002 af3c
000002f0: 5bd3 3d3c 77a4 bb3b 3385 2fbb 2683 3b3d
00000300: 7bd9 063d 91ee bfbc e4e2 2ebc e590 843d
00000310: c6b8 e63b 9508 303b 5306 f1bb 0cc7 693b
00000320: 2dcd c7bc c79c 0bbc 1a12 aabc 9ed8 e13b
00000330: 6c2e a2bc 1667 85bb 73ac 1a3e c6e2 19bd
00000340: 12f6 ae3d 493b 013c 70c2 033e d6da 113c
00000350: 6be6 723c 3c93 36ba 995b 85bd a54d ba3b
00000360: 5d6e 523d 76c5 123c b07a 9f3c c388 13bc
00000370: 0ad0 bf3c df96 16bc bead f5bc b73a acbc
00000380: c27e 473c 47bb ff3d e1f1 8ebd d188 a03c
00000390: ffc6 173d d1a9 42bd 5161 9d3d e515 9a3c
000003a0: c7b7 413c 5d9f 17bc 6b7c 5e3d 44c8 0c3d
000003b0: defd 6cbd 8075 febd 2987 2cbb 58e3 573b
000003c0: e506 943c b664 66bc aa70 6d3d bd7f b2bc
000003d0: a1e8 5f3c 4eb5 d63c 16c9 8fbc d7b1 af3d
000003e0: ae35 c6bd 143b 363d e13f 3ebc 8a19 aabd
000003f0: 7dcb 873c 80ec 4f3e 821e 1a3c b5e8 c6bc
-0.010803154 0.03038926 0.1268502 -0.11097365 0.08151941 0.025239386 0.19305404 -0.05861287
0.08909489 -0.0026776658 -0.016449641 -0.034084067 0.19748777 -0.0140834125 -0.02523413 0.014021887
0.08275736 -0.09282161 0.106662355 0.12985842 0.021629015 0.07560876 0.0052743633 -0.017996298
0.1593235 0.010799056 0.16843398 -0.023140248 0.056801893 0.06540154 0.0077930447 0.11636894
-0.057637673 0.008400154 -0.04395342 0.007572587 -0.028780054 0.20892765 0.015966224 0.13222612
0.13954814 -0.024799936 0.0067182234 -0.105324805 -0.08295309 -0.0018226469 0.010185898 -0.11787512
0.124809384 -0.051700488 -0.028446387 -0.064369835 0.023170989 0.038831532 0.0011597183 0.00062134897
-0.070783645 -0.02686713 0.014157406 -0.13364288 -0.122863255 -0.03789825 -0.011194171 -0.09285786
0.1382686 -0.01843909 -0.1036051 0.0055490956 -0.0029901818 -0.08344186 -0.13452588 0.028449927
0.054079294 -0.1231981 0.019191429 0.06452828 0.15209366 0.0056170244 0.011212464 -0.012007291
0.04083379 0.007635902 0.010325674 -0.026953598 -0.01790325 -0.043293066 0.005435195 0.012303577
0.014385269 0.075185016 0.0029870966 -0.049532615 0.15002292 -0.009865117 0.036974397 0.042250443
-0.0019574221 0.1011494 0.06338483 0.11830203 0.079927936 -0.03609524 -0.031667154 0.0070407
0.043454893 0.008396044 0.008193184 -0.15832236 -0.05756103 0.023660716 0.09039263 0.016465351
0.031629708 -0.06126216 0.0061902176 -0.042128112 0.04157277 0.0070687053 0.010965168 -0.13275297
-0.049320348 0.009393041 0.009892851 0.011008277 0.011945111 0.0025526322 0.0011164985 0.0041398252
-0.0800259 0.05917362 0.11254759 0.0135787185 0.004133166 -0.0006838591 0.0036272292 0.118545115
0.010759616 0.041550677 0.011133182 0.13519171 0.010517838 0.0073536406 0.013475457 0.02084769
0.007595258 0.0032452329 -0.15218404 0.04831633 -0.059455074 -0.21994545 0.008423291 0.014600658
0.009544496 0.0036344233 -0.060789574 -0.053333487 0.034754287 -0.0019435459 0.0044567217 0.0022671968
0.022682365 -0.0039385273 0.0025146077 0.0019310853 -0.0015018352 -0.025956908 0.0078625865 -0.0043858923
0.014972685 -0.03797118 0.004604577 0.0057906713 -0.0021083562 0.0020004327 0.06849743 0.012866539
-0.009312545 -0.025953596 -0.0888867 -0.037462004 -0.016100924 -0.002114637 0.012247125 -0.018763177
-0.01334001 0.08415878 0.0033270225 0.021363407 0.011586036 0.005726393 -0.0026782274 0.04577937
0.03292225 -0.023429187 -0.010674212 0.06472949 0.0070410697 0.0026860584 -0.0073554902 0.003567162
-0.024389828 -0.008521265 -0.020760585 0.006892278 -0.019797526 -0.0040711267 0.15104847 -0.037569784
0.08543028 0.00788767 0.12867141 0.008902272 0.014825444 -0.00069646887 -0.065116115 0.0056855255
0.051374782 0.008958211 0.019467682 -0.0090047745 0.02341463 -0.009191244 -0.029990073 -0.021024091
0.0121762175 0.12486892 -0.069797285 0.01959649 0.03705501 -0.04752523 0.07684577 0.018809268
0.011823601 -0.009254304 0.054317873 0.034370676 -0.057859294 -0.12424755 -0.002632568 0.0032941904
0.018069694 -0.014062097 0.057968773 -0.021789426 0.013666303 0.0262095 -0.01755194 0.08578842
-0.09678207 0.044489935 -0.01161191 -0.083056524 0.016576523 0.20305061 0.009406688 -0.024280885

gru.weight_hh_l0 f4 [162, 54]
00000000: 3d67 bbbd b991 44bd aa71 eb3c e468 e03c
00000010: fdfe c7b9 689c 9fbd 586f 73bc 120c 7dbd
00000020: e71a 3c3d 43f8 cdbc 5e16 8b3d 4f46 85bd
00000030: 0724 d83d 753f 4bbc caba 57bd e8ee 16be
00000040: e56f 26be 8233 0d3e df68 b83d 41d1 383d
00000050: e20b 833b 6868 173e 7a1f f93d a053 95bd
00000060: f39c bd3d 279c 60be 8f80 863c 7c46 91bd
00000070: 0d9f 0d3b ebf5 bbbc 9bd7 12be 90cb 65bc
00000080: 986e b33d 0c6a 8ebc 0204 10bd 6baf 313d
00000090: 853b ca3b d4b7 3cbc 45c9 683b ab38 57bd
000000a0: d3ed 42bd 0b9f 3c3d a4d1 71bd bee8 b5bb
000000b0: d697 e83c 249e 53bd 724c ecbc e970 24bc
000000c0: 6c00 2a3c 590c 74bd e2b2 293d 27e2 bcbb
000000d0: 6ff9 333e a1da d53c 6ffd 31be 992c b33c
000000e0: 1820 9ebc c986 a13b 7501 27be ebb9 b43d
000000f0: f708 1cbc 366c cf3b e1be d7bc 1c79 b2bc
00000100: 2c9b 01bd 28c3 323d 491b e53d 7216 1cbb
00000110: 834d 933c 642e 973c 07a9 113d 718c b43d
00000120: ae98 ac3d 3cfd ce3d 6d1c e33b 87a8 6bbc
00000130: bd60 603c 713d 1b3c 87ac 1b3c 3b33 8ebc
00000140: a911 c1bc 48b3 2c3e fb93 c63c d802 00be
00000150: f143 01bd 3c14 013d ed64 22b9 ddc5 d2bd
00000160: 1ae2 2f3d dc0b 183d 7c76 48bd a38f e7ba
00000170: 533a b6bb f5a9 023c 5b8f a9bc b57e 19be
00000180: 618e adbc cb4f 0fbd c05e e63b b8d5 d53d
00000190: b30c dcbb 9f44 ccbc 11fc 0fbc 65e8 ba3e
000001a0: d4e3 cd3d e051 743c 6ed2 a5bc f6c1 83bd
000001b0: 157a 1cbd 04e2 1e3e 2133 a5bc a0c6 e7bb
000001c0: bb40 963c d324 8abd ec5a 2bbb 9630 643d
000001d0: 7439 4abe 768a 04bd 30d9 03bd 77ab 8a3d
000001e0: c55d 773d fa3b b4bd 7d42 fc3c 06d1 633d
000001f0: 172e 01bd c67e f03c 84ae 18bc ed2b afbc
00000200: a464 15bd 4de1 d0bb c807 153c 6d88 b03c
00000210: e046 c939 dbfc 1fbd b282 0cbd 97b4 94bd
00000220: 4e20 e23c 4041 26bd 0a47 1e3d 2fd1 b63b
00000230: aafd d23c 5f1e 47bd ff9b aa3a e327 6a3c
00000240: bd47 443c 10d9 e5bb 4960 94bc a484 37bb
00000250: aa2b 54bc 9c05 8abc 223b 46bb 826d 1cbd
00000260: 7c27 303d 9614 1a3d 0f7c 7cbb 494c 5cbd
00000270: ad0b bebc 363d 443c ae2a 793c 891f e33c
00000280: 79a9 d73c 8a14 62bd 5470 b23c ef13 9bbb
00000290: 28a0 e9bc 7689 d4bb 7360 48bd 73d6 8c3c
000002a0: 17a4 433b 362b 16bd 79cb f0bc bbeb f23d
000002b0: 7a49 96bd 45b3 b43d 33e1 833c d256 56bd
000002c0: 7956 3bbd de96 35bd 92ec 843a 0d21 113d
000002d0: aebe 82bc 73de 9dbd cf0b 98bc d68a 92bd
000002e0: 681c 28bd 7f06 e6bb ef09 233d 4f6c 0ebc
000002f0: ecb8 043d 8c70 893c f269 0ebd 5a46 333d
00000300: 75b9 e33d a25d 6fbe f9c8 dfbc 9977 fdbc
00000310: fedd 373d 0702 2fbd 5b75 20bb 6849 c7bb
00000320: 8fb7 0fbd 1dd9 87bd ab11 20bd d5a1 0fbd
00000330: c45a 05bd 16f7 8a38 536e c83c 2d6e 633d
00000340: 01b4 1cbc 618e 8ebd 49d3 5b3b fe61 d4bd
00000350: 1c9f b9bc 8896 6c3d 5870 7bbc 0c1b 903d
00000360: 7880 08bd 4654 f83c 9506 2f3d c6ba c03d
00000370: 1616 dd3b 6615 363d 9b8d 14bc ead8 c93c
00000380: fedd 5ebd 71c3 2e3d 7c1a b2bd 7f08 573d
00000390: 006b 063d 833e e3bb 5dfb 4bbc aa11 45bc
000003a0: a3cc a0bc 1625 82bc 765f 5e3c a8dd 1c3c
000003b0: 5da5 a8bc ce3e 80bd e36e cc3b b986 d43c
000003c0: 9d99 ea3c 9b42 cd3c ab6c 54bd d99e 2fbd
000003d0: b5f5 1b3d f620 90bc a779 35ba ce88 a2bd
000003e0: 4005 e6bd caaa 01bc 1065 4ebd bfaa 133c
000003f0: 8147 863d e0f1 23bc 51ac 90bc 31f5 6cbb
-0.091505505 -0.047990534 0.028740723 0.027393766 -0.0003814622 -0.07793504 -0.014858089 -0.06177909
0.045924094 -0.025142794 0.067913756 -0.06507551 0.10553747 -0.012405266 -0.05266837 -0.14739573
-0.16253622 0.1378918 0.090043776 0.045121435 0.0039992193 0.14785922 0.12164207 -0.07291341
0.09258451 -0.21934567 0.016418723 -0.07093522 0.0021609694 -0.022944411 -0.1434006 -0.014025584
0.087613285 -0.017384551 -0.035160072 0.043380182 0.006171646 -0.011518437 0.0035520357 -0.052544277
-0.047590088 0.046050113 -0.05903782 -0.0055514267 0.028392714 -0.051664487 -0.028845046 -0.0100366855
0.010376077 -0.05958209 0.04143036 -0.005764264 0.1757562 0.026105227 -0.17381833 0.021871852
-0.019302413 0.0049293977 -0.1630915 0.088245235 -0.009523622 0.0063300384 -0.026336135 -0.021786265
-0.031642124 0.043643147 0.11186845 -0.002381709 0.017981296 0.018454738 0.035561588 0.088158496
0.08427559 0.101068944 0.006930879 -0.014383442 0.013694939 0.009475098 0.009501583 -0.017358413
-0.023567991 0.16865265 0.024240484 -0.12501085 -0.031558935 0.031513438 -0.00015487122 -0.10291646
0.042940237 0.037120685 -0.04894112 -0.0017666708 -0.005561152 0.007975091 -0.02069824 -0.14989741
-0.021186056 -0.034988206 0.007030338 0.10441154 -0.006715381 -0.024935065 -0.008788125 0.36505428
0.100532204 0.014912099 -0.020241942 -0.064334795 -0.038202364 0.15515906 -0.020165982 -0.0070732385
0.018341413 -0.06745305 -0.0026146723 0.055710398 -0.19748479 -0.03235861 -0.032189548 0.067709856
0.06039216 -0.08800502 0.030793423 0.055619262 -0.031538095 0.029357325 -0.0093189515 -0.02138325
-0.03647293 -0.006374514 0.0090960935 0.021549428 0.00038390514 -0.0390595 -0.03430433 -0.07261007
0.027603295 -0.04058957 0.038641967 0.005579136 0.025755722 -0.04861295 0.0013016461 0.014291736
0.011979994 -0.0070144013 -0.018112319 -0.0028002644 -0.012949863 -0.016848378 -0.0030247648 -0.038190372
0.043006405 0.03761729 -0.0038526093 -0.05378369 -0.023198927 0.011977484 0.01520793 0.027724998
0.026325928 -0.05519537 0.021782078 -0.004732601 -0.028518751 -0.006486113 -0.048920106 0.017192101
0.0029852444 -0.036662303 -0.029393898 0.11861368 -0.07338233 0.088232554 0.016098594 -0.052328892
-0.045736764 -0.04433333 0.0010141304 0.03543191 -0.015960064 -0.077084444 -0.018560318 -0.07155387
-0.041042715 -0.0070198174 0.039804395 -0.008692815 0.032402918 0.0167773 -0.034769006 0.043768264
0.111193575 -0.23375562 -0.02731751 -0.030940818 0.044889443 -0.042726543 -0.0024484012 -0.0060817488
-0.035087164 -0.06633208 -0.03907935 -0.035066444 -0.032557264 6.626376e-05 0.02446667 0.055524994
-0.009564401 -0.0696075 0.0033542684 -0.10370253 -0.022658877 0.057760745 -0.015346609 0.07036409
-0.033325642 0.030313622 0.042730886 0.09410624 0.0067470176 0.044454 -0.0090669645 0.024639565
-0.054410927 0.042666856 -0.08696458 0.052498337 0.032816887 -0.006934942 -0.012450066 -0.012028137
-0.019628828 -0.015886825 0.013572564 0.009574331 -0.020586664 -0.06261979 0.0062388047 0.025943147
0.028637702 0.025056174 -0.051861446 -0.0428761 0.03807612 -0.017593842 -0.00069227297 -0.0793625
-0.1123147 -0.007914254 -0.05038935 0.009012877 0.06556607 -0.010006398 -0.017660292 -0.0036156888

gru.bias_ih_l0 f4 [162]
00000000: c5e3 543d 8a0f 563d 61b4 a3bd 1e80 c4bd
00000010: 4a50 c83d d738 da3d 4351 e4bd 35d1 fabd
00000020: 175b 3bbd aa77 9bba dcf0 6e3d 4bfb 18be
00000030: 4350 d33d af66 813d 82c0 183d 10fc bb3d
00000040: c54b c3bd 0c9c e63c 6ab2 b8bd d0e6 22bd
00000050: f005 0ebe eab8 2d3c 6b74 6a3c aea6 c73d
00000060: ecc6 f83c 6761 65bd a7d4 843d 863c 40bd
00000070: 1215 9cbd c54a b4bd d7b3 a6bd 3d90 993d
00000080: 2207 f9bd cfed 3abd 17e0 113e e9d7 b53d
00000090: 6cc2 003e 135a 02be 977d 6ebd 8043 d93c
000000a0: 2949 9dbd 29df 2c3d bc29 dd3d e911 163e
000000b0: 33c5 93bd 05b1 9abc ccd5 55bd 7179 133d
000000c0: a51d 9a3d 5873 09be e370 2dbd 7269 7ebd
000000d0: 5214 ed3d 262b 0b3e 7682 b23d 621a 7dbc
000000e0: 90aa 89bd 1938 e7bd a44c 8b3d 902f 56bd
000000f0: 9e4a d0bd 105e 66bd f237 77bd 44b6 f53c
00000100: 58ff a83d e6ea 01bd e7d2 de3d 6cfc 183d
00000110: ed11 97bd ee5b 0b3d cc71 c2ba 5c3e 23bd
00000120: 26df 97bc 80e9 d33d 2047 d5bb bbee d3bd
00000130: 1be4 b5bd ac73 bdbd efe0 aabd 8f8c 77bd
00000140: 68f8 04bd c45b acbd d5ad db3d 0458 9cbd
00000150: 9f96 d13d e466 ecbd 9329 c8bd 8dc8 a6bd
00000160: 46ea 2dbd 34b6 f4bc a29d c23d 18d6 df3d
00000170: 687e 68ba ccf9 33bd f34b 8fbd ddd1 db3c
00000180: 21e0 323c 8e07 e23d 20fe c6bd 1ecf acbc
00000190: 23d4 a83d fa1d 99bd ae9f fd3d 77e0 4a3d
000001a0: 3718 5f3d c71b f33c a3bd 4ebd e480 b73c
000001b0: 04ee f73d fc97 ff3b e2d1 75bd 2414 8fbd
000001c0: 32f7 42bd ab6f aebd 1a3e 823d 2534 cb3d
000001d0: fd4e 18bd 9229 07bd 1756 77bd 1f51 e53d
000001e0: d96e 4c3d 96b3 d8bd 3734 3fbd d819 a6bd
000001f0: 25b6 8cbd 9389 86bd 17d7 07be b1fa 763c
00000200: 6cd7 f6bd 0446 4fbc c5e0 413d a66a bb3d
00000210: 6ed8 bbbd c2c4 d2bd d963 d7bc 2894 92bd
00000220: 1719 a63d 23c6 d23d 5190 8f3b 4f0d 5ebc
00000230: ffb8 83bd 5b0e bbbd 88ef 80bd 86c7 39bd
00000240: 6582 963c 5b5a bbbd 7dbc 6abd 483a 0b3e
00000250: 717d 293d 8409 7fbd f3ab aa3d a1b4 13be
00000260: 7b80 053e cb3e ea3d ef2d ffbd 33e6 14be
00000270: 898a 733d 54b8 823d d229 bcbd 5295 003e
00000280: 475f f6bd d760 7fbd
0.05197503 0.052260913 -0.07993389 -0.09594749 0.09780939 0.106553726 -0.11148312 -0.12246934
-0.045741167 -0.0011861224 0.05833517 -0.1493961 0.10318043 0.063184135 0.037292965 0.091789365
-0.09535936 0.02815058 -0.09018405 -0.0397709 -0.13869452 0.010603169 0.014309983 0.097485885
0.03036829 -0.056001093 0.06485873 -0.04693272 -0.07621206 -0.08803324 -0.081397705 0.074982144
-0.121595636 -0.04563695 0.1424564 0.08879072 0.12574166 -0.12729673 -0.05822524 0.026521444
-0.0767997 0.04220501 0.10798976 0.1465527 -0.07215347 -0.018883238 -0.052205846 0.036004487
0.075251855 -0.13422906 -0.042343985 -0.06211228 0.115761414 0.13590679 0.0871629 -0.015448185
-0.06721985 -0.11289997 0.068017274 -0.052291453 -0.10170482 -0.05624205 -0.060356088 0.029994138
0.08251828 -0.031718157 0.1088007 0.037350103 -0.07376466 0.034023218 -0.001483494 -0.039854392
-0.018539023 0.10347271 -0.006508723 -0.103482686 -0.08881398 -0.09250578 -0.08343684 -0.06043678
-0.03246346 -0.084159404 0.10726515 -0.07633975 0.10233807 -0.11543062 -0.09773555 -0.08143721
-0.04245975 -0.029872037 0.09502722 0.10929507 -0.00088689337 -0.043939397 -0.06996908 0.026833469
0.010917694 0.11036597 -0.09716439 -0.021094855 0.08243587 -0.07476421 0.12383972 0.049530473
0.054466452 0.029676331 -0.05047382 0.022400327 0.12105945 0.0078001004 -0.060014613 -0.069862634
-0.047599025 -0.08517393 0.06359501 0.09922055 -0.037184704 -0.03299863 -0.060384836 0.11197113
0.0499104 -0.10581128 -0.046680655 -0.08110398 -0.06870679 -0.06569209 -0.13265644 0.015074418
-0.12052807 -0.01265097 0.047333498 0.09151201 -0.0917214 -0.10291435 -0.026292728 -0.07157165
0.08110254 0.10291698 0.0043812175 -0.013552978 -0.064317696 -0.091335975 -0.06295687 -0.045356296
0.018372724 -0.09148093 -0.057308663 0.13596451 0.041379396 -0.062264934 0.08333578 -0.14424373
0.13037293 0.11437758 -0.12459933 -0.14540939 0.05945829 0.06382814 -0.09187664 0.12556961
-0.120298915 -0.062348213

gru.bias_hh_l0 f4 [162]
00000000: 4343 e4bd c22b 5e3d f6c7 a8bd 1274 b43d
00000010: afec f83d fda3 653b 8ef6 f3bd d11e 00be
00000020: 2014 3b3c a755 2fbc 9e09 f43c c6cb 02bd
00000030: 40c1 84bd 48e2 103d 11e8 943c 47ba 66bd
00000040: e4d8 d63d b841 06be c694 ee3d 5876 83bd
00000050: 215a 98bd 6e3f 0ebe d53e a6bd 4b7a 123e
00000060: 371d ce3d e268 f6bc 13fe 81bc 5a03 cc3d
00000070: e890 88bd 30d7 b3bd 1dba 0f3d 1556 0ebe
00000080: fd89 eabc 93af a33d 60f4 53bd a42a 12be
00000090: 3d4e a13d 0417 eb3c 2d26 cfbc bb0f f73b
000000a0: 0c7d 563c f13c 943d 8cc7 a53d 720a 863d
000000b0: 5154 2abd ef16 bb3c a1c0 e6bd 039e cabb
000000c0: 653f 223e b107 bf3d d183 1dbd 81b5 e9bd
000000d0: f44a c53c 19dc 013e de36 383d d160 d93c
000000e0: d00a aabd f4cd d6bb 7eff e33d 4627 b03d
000000f0: 59c6 44bd 30b5 a33d 3418 983d 327d a1bd
00000100: 1444 ba3c d241 0a3d b9fd 7dbd 7ac8 f7bd
00000110: baa7 8c3c 475b 80bb 3e99 783d 5855 a03d
00000120: de32 e3bd 7958 cfba 9a05 c83d 3227 80bd
00000130: b218 023e f057 dfbd a0e7 0ebd 3f8c 653c
00000140: 93af a9bd 3f9d b13d e685 893c 439d 203d
00000150: 57d7 debd 3e92 a3bd 314c 9ebd dd09 073d
00000160: 88a0 b0bb 153d 4d3d 8e0a 33bd 0fc4 c53d
00000170: ba2c 8b3d e101 093d 857e 1fbc e6db 97bc
00000180: b6dd a23b 352b fbbd 13d2 3b3d 6229 75bd
00000190: 7878 083d 9f48 cdbd 26ec 28bc 0bf5 b7bd
000001a0: ccf2 f53c 4020 a0bd f42b e33c 8811 e7bb
000001b0: d844 72bd 8f23 df3d ea17 e23b b983 043e
000001c0: 7cc7 c33d d182 0a3e e664 aa3d 7706 d23d
000001d0: b3de 24be 6d44 81bc d1ee c5bb ab56 c1bd
000001e0: 32b9 413d 8276 d2bc 6f90 643a ef7c 773d
000001f0: 58d4 6d3d e3c9 033e b00c d9bd 31d3 803d
00000200: 6917 59bd e4a3 e23c c50b bdbd c568 cc3d
00000210: d429 923c 8d61 88bd 9e22 08be 8e11 7c3d
00000220: c7df 203e d6f0 273d 8b1f f63c cc95 c23d
00000230: 21a6 14bc f1be c8bc 22de c8bd a377 bdbd
00000240: 0fe5 0b3b 5c73 0a3d 3565 ba3d 6db0 8b3d
00000250: cc8a 823d 555c 42bd 4fbf d7bd d0b4 90bd
00000260: 1015 c03c 1310 5cbd b90b 803d e738 5e3c
00000270: 518f 1bbc 16a2 443d cd41 7b3d 6492 cabd
00000280: d00d 52bd bf1a 13be
-0.11145642 0.05424095 -0.082412645 0.08811201 0.12154519 0.0035040372 -0.11912261 -0.12511756
0.011418372 -0.010701573 0.029789742 -0.031932615 -0.06482172 0.03537205 0.018177064 -0.05632999
0.10490587 -0.13111007 0.1164947 -0.06419057 -0.07439066 -0.13891384 -0.08117453 0.14304464
0.10064166 -0.030079309 -0.015868222 0.09961577 -0.06668264 -0.08781278 0.0350896 -0.13900025
-0.028630251 0.079924725 -0.051746726 -0.14274079 0.07876251 0.028697498 -0.025286758 0.007539717
0.013091337 0.07238186 0.08094701 0.06544961 -0.041584317 0.022838084 -0.1126721 -0.0061833872
0.15844496 0.09327639 -0.038455788 -0.11411572 0.024083592 0.12681617 0.0449742 0.026535423
-0.083028436 -0.0065553132 0.11132716 0.08601241 -0.04804072 0.07993543 0.074264914 -0.07885207
0.02273754 0.033754177 -0.062009547 -0.12098785 0.017169822 -0.003917131 0.06069302 0.07828778
-0.110936865 -0.0015819214 0.097666934 -0.06257476 0.12704733 -0.109054446 -0.034888864 0.014010488
-0.08285441 0.086725704 0.01678748 0.039212476 -0.108809166 -0.07986878 -0.07729376 0.03296839
-0.0053902306 0.05010708 -0.043711238 0.09656536 0.0679564 0.033449057 -0.009734754 -0.018537473
0.0049702777 -0.122641005 0.04585464 -0.05985392 0.033318013 -0.10023617 -0.010310208 -0.08982285
0.030023001 -0.07818651 0.02773092 -0.0070516504 -0.059147686 0.10895454 0.0068998234 0.12940873
0.09559533 0.13526465 0.08320026 0.10255139 -0.16100578 -0.015779698 -0.006040432 -0.09440359
0.047295757 -0.025691275 0.0008719032 0.06042188 0.058063835 0.12869982 -0.10598123 0.062902816
-0.05300084 0.02766604 -0.092307605 0.09980921 0.01784221 -0.06659231 -0.13294455 0.06154018
0.15710364 0.041001163 0.030044338 0.09501228 -0.009072811 -0.02450511 -0.098079935 -0.092513345
0.0021346246 0.03380142 0.09101335 0.0682076 0.0637413 -0.047451336 -0.10534536 -0.07065737
0.023447543 -0.053726267 0.06252236 0.013563371 -0.0094946185 0.04800614 0.06134205 -0.09891203
-0.051282704 -0.14365672

Wk.0.weight f4 [108, 118]
00000000: b70a 94bc 6818 9dbd 55cc 2cbe e467 3fbd
00000010: 3fda 7c3e 95a0 2d3d f57e 943d 8ede 663e
00000020: d218 e9bc 0182 d1ba 2e35 5ebe 9e69 9cbc
00000030: bc1a d0bd dcd5 093e 95e0 293d 00f7 53be
00000040: 1358 51be 0b16 11bd bd02 97be 8307 953d
00000050: 6777 30be 44e9 1a3e fe6a c9bd 68d2 683e
00000060: 1aa6 1bbe 4255 c4bc f416 57be 4327 00bc
00000070: e7eb babd 301d 103c 1065 35be 427f 11be
00000080: e0d2 23be 75af 8fbd 7b96 183e 81b9 863d
00000090: 353d c23d 3874 b83d 9f87 0abe a3f0 443e
000000a0: 5ff2 8bbd c482 c4bd b984 81bd 5cb8 c4bd
000000b0: f8f0 833e 12b3 d0bd b4f5 1fbe 5a42 89be
000000c0: 94c6 63be c48f 673c 23af d2bd 6bbb 3cbd
000000d0: d5d7 5ebe fef0 2ebe 6afe 84bc 0a2f dfbb
000000e0: 9105 10bd eb6d 39be 201e f63c d1eb 843e
000000f0: 2b4b 063e aba8 6f3d 39a0 e8bc ed20 013e
00000100: 6cb4 febc 4168 e63d 0eda 66bd 413f 6e3c
00000110: f769 18be 38fe 943d a92d 6f3d 9830 48bd
00000120: 54c2 35be b371 333d 8d61 d1bd 3698 4e3c
00000130: 82df b6bc 868a 833d dbfb b9be 0e19 ab3d
00000140: ab37 cf3d 8152 003e 0b99 763c ffab 0dbe
00000150: 98c8 34be 8b09 01bd 0c10 0bbe 7a52 803d
00000160: 24f3 2dbe fe36 673e b1ff f83c 5212 b9bc
00000170: 0529 02be 448b ee3d 70bc 3d3c 02c3 0bbd
00000180: 5d8c 0ebe 2de7 b03d f44d 1b3e 1c63 0fbe
00000190: 7ade 873b 51ea a33d 7a3d 883d 99c1 563e
000001a0: 7f69 89be 59ad 0ebd ae83 233d 63f9 af3e
000001b0: 3277 afbc 9378 e03d 478e 07be 288f 803c
000001c0: 53fd 2f3c 0d05 a83d 1f83 083a 18e6 923d
000001d0: a6c1 4c3d 35dd 8d3e 9097 a1bd 9533 753d
000001e0: 227c 7dbe 2cb0 bbbd 19c0 853e d2c4 f4bd
000001f0: 6ee9 0dbe c774 5abe fcdd c9bd b1d7 5ebe
00000200: eb14 cdbc 7976 bf3d a326 7a3e 6fb0 d93c
00000210: 65c8 883d b806 043e 79a2 f13b 021c 523c
00000220: 9e9c 88bc 43ec 2bbd 0016 a3bc c52c 1cbd
00000230: 48ec 2fbd ddca 633e 3111 513a c75b 043e
00000240: f939 e13d e403 4abe ff2a ab3d 1e69 623e
00000250: 0d1c bbbd dddf b33d 3d28 ad3e 2291 82be
00000260: 9214 ad3d c245 3c3d 4bc7 263e 5e8c b83c
00000270: 98de 01bd f5c0 1dbe fb45 cebc 7944 b7bd
00000280: 533a 0c3e 063b 8d3d 48f1 bd3c a5a2 afbc
00000290: 8888 0cbd d2f7 83bd 02f2 01bd 91eb 15be
000002a0: c5cb 9e3e eddf a13d 4805 68be cdd7 cabd
000002b0: 98f4 20be a486 8dbe e925 db3d c436 88be
000002c0: 1310 9f3d 75a8 4ebe 4c05 a53c d9b6 6a3d
000002d0: 8d78 9c3d c93f 48bc c8da f03b d1fd 0c3c
000002e0: 2d07 3dbe 5d1f d03d c296 303e a89c 1b3d
000002f0: 553c 8d3d 5cff 2b3e e495 313e 183f b53d
00000300: 9c07 53be 955c 673d b969 ec3b 6ff5 5bbd
00000310: b996 043e d545 3ebe a60e 673b 9868 3d3e
00000320: d3c2 5d3d f109 43be c2d1 2abe 1652 393e
00000330: 8bf5 df3d 1740 0bbc efc1 c43d a0fe ce3d
00000340: ea25 dbbc dc45 f1bd 2b76 3d3d 1ceb 853d
00000350: 189a 52bc 86e3 643e 2300 4b3e 440b a63c
00000360: 18fb ff3b b8c6 6a3e 2124 2cbe 16e1 94bc
00000370: 62d2 da3d 8fa3 253e 2c3d d63d 3f6e 53be
00000380: 0324 ddbb dc45 273d 139a ea3c 272a 9bbd
00000390: 3ae5 0cbe 3f8c 3d3e 2eb0 9ebd d8f7 01be
000003a0: 5ca6 08b9 c33b 0dbc 4843 26bc 4dc8 0b3d
000003b0: e64f 83be a681 443d 7bd6 87bd 1004 2ebd
000003c0: 80a4 2d3c b8bf 8c3c 0907 c73d f897 5e3d
000003d0: cbb7 da3d 2411 8a3d a4c6 2ebe 094d 2ebe
000003e0: f649 7a3e 80de 04be 7fb7 c83d 5bae f93d
000003f0: 97c5 16bc f976 dbbc 100b fbbd be01 e3bc
-0.018071515 -0.07670671 -0.16874821 -0.046729937 0.2469263 0.04238947 0.07250778 0.22545835
-0.028454218 -0.0015984179 -0.21699974 -0.019093331 -0.10161349 0.13460487 0.041473944 -0.20699692
-0.20443754 -0.035421412 -0.29494277 0.07276823 -0.17233048 0.15128046 -0.0983486 0.22736514
-0.15200081 -0.023966435 -0.2100485 -0.007821861 -0.09127026 0.008796021 -0.17714334 -0.14208701
-0.15998411 -0.07015888 0.14901154 0.06578351 0.094843306 0.09006542 -0.13528298 0.1923242
-0.06833338 -0.09595254 -0.06324143 -0.09605476 0.25769782 -0.10190405 -0.15621072 -0.26808435
-0.2224372 0.0141333975 -0.10287311 -0.046077173 -0.21762021 -0.17084119 -0.016234595 -0.0068110274
-0.03516156 -0.18108337 0.030043662 0.25961164 0.13114612 0.058510464 -0.028396713 0.12610216
-0.031091891 0.112503536 -0.056360297 0.014541448 -0.14884172 0.07275051 0.058393154 -0.048874468
-0.17749912 0.043809604 -0.102236845 0.012609532 -0.022323374 0.064229056 -0.36324963 0.08354388
0.1011804 0.12531473 0.015051137 -0.13835143 -0.17654645 -0.03150324 -0.1358034 0.06265731
-0.16987282 0.22579572 0.03039536 -0.022591744 -0.1271096 0.116476566 0.0115805715 -0.03412152
-0.13920732 0.08637843 0.15166456 -0.14002651 0.0041463943 0.08003677 0.06652351 0.20972289
-0.268383 -0.034833286 0.0399205 0.34369954 -0.021419141 0.10960498 -0.13237868 0.015693262
0.01074155 0.08204088 0.0005207527 0.07172793 0.049989365 0.2770783 -0.078902364 0.059863646
-0.24754384 -0.091644615 0.2612312 -0.11951603 -0.13858578 -0.2133361 -0.09856793 -0.21761967
-0.025034389 0.09348769 0.24428801 0.026573388 0.06678847 0.12893188 0.0073741046 0.01282406
-0.016676243 -0.041973364 -0.019907951 -0.038128633 -0.042949945 0.22245355 0.0007975279 0.12925635
0.109973855 -0.19728047 0.0835781 0.22110412 -0.0913621 0.08782933 0.33819762 -0.25501353
0.08451189 0.045964964 0.16286962 0.02252787 -0.031706423 -0.15405639 -0.025179854 -0.08948607
0.13694124 0.068960235 0.02318634 -0.02143986 -0.034309894 -0.06443752 -0.031724937 -0.14640643
0.3101484 0.079040386 -0.22658265 -0.09904442 -0.15718305 -0.27641785 0.1070059 -0.26604283
0.07766738 -0.20181449 0.020144127 0.057303283 0.07640181 -0.012222239 0.0073502995 0.008605436
-0.18459769 0.10162232 0.1724501 0.037991196 0.06896273 0.1679663 0.17342335 0.08849925
-0.20608371 0.056484777 0.0072147516 -0.05370086 0.12948121 -0.18581326 0.0035256534 0.1849693
0.054140877 -0.19046761 -0.16681579 0.1809772 0.109355055 -0.008499167 0.096073024 0.101071596
-0.026751477 -0.11780903 0.046255272 0.06538984 -0.012854122 0.22352418 0.19824271 0.020269044
0.007811915 0.22927368 -0.16810657 -0.018173736 0.106846586 0.16175674 0.10460886 -0.20647524
-0.0067486777 0.040838107 0.028637921 -0.07576399 -0.13759318 0.18510531 -0.07748447 -0.12692201
-0.00013031944 -0.008620205 -0.010147877 0.03412657 -0.25646895 0.047975205 -0.06632706 -0.042484343
0.010598302 0.017181262 0.09718139 0.054344147 0.10679587 0.067415506 -0.17067963 -0.17021574
0.24442276 -0.12975502 0.09800624 0.12191459 -0.0092023825 -0.026790129 -0.122579694 -0.027710792

Wk.0.bias f4 [108]
00000000: d4eb e63c a18d 5cbd e16d c53d 307a 873d
00000010: 6ab6 b83c 3796 50bd 6bc9 ab3d 3a2c a23d
00000020: 9d62 493b 4ddb 18bd 244d 633d a5d4 e13c
00000030: 73e8 0b3b adfc c03c 409a 6dbd c2ad 4dbd
00000040: 2f25 f3bc 31b1 aa3b e689 22bd 44a4 eb3c
00000050: b022 23bd 5bd2 d43c 0b83 e13d 2061 443d
00000060: 8d8c 7b3d 9c06 853c a876 0abd fea4 05bd
00000070: f3c7 4abd 5c14 7d3c 48df 673d 89ed 65bd
00000080: 9a7e 94bb 16af 783d 0d67 d73d 2725 a0bc
00000090: 1e89 acba f66b 10bd 9211 51bc 2ece 843d
000000a0: 109d 483d f233 ab3b 6e19 9c3d e41b bf3d
000000b0: 91f6 57bd 5efa 973d d8e4 b23d 7c06 11bd
000000c0: 5edd 8d3c 7390 2fbc 1191 eb3d c19a 343d
000000d0: bce7 98bc 1ded ea3d fcd2 a63d 7507 ec3d
000000e0: b188 b43d 1667 903d 7426 c2bc 8d4c d83c
000000f0: 0250 b93d f122 d33c acc4 353d 5b28 803d
00000100: eb04 e0bc c6d1 b13d b224 b93d bc0e cd3d
00000110: e2bd 49bd 4b74 bd3c dc65 583c 6aac 8bbc
00000120: 1c99 113d 372b 5c3d 7921 be3c ed34 1d3c
00000130: 64c4 e53d 4a34 f1bc 780e 693d 05fd 983d
00000140: 357c 2cbc 9572 813d 78a4 b6bc 88da 923d
00000150: 2365 d43d 7fa4 8dbc 759c 523d d92a 6abb
00000160: 3b7a 62bd f4d3 e9bc bc83 183a dd0d cc3d
00000170: 70c1 5ebc 4d95 5c3c 0504 803d 7275 34bc
00000180: b664 a43d b894 ca3d 7ff1 5bbd 69d2 c33d
00000190: 56f2 a33d 4150 b7ba c2fd 943d 390d 09bd
000001a0: 1561 653d c63e c03d e940 a23d 1cea b23d
0.028188623 -0.053846005 0.09640098 0.06615102 0.02254792 -0.050924506 0.08388027 0.07918592
0.0030728944 -0.037318517 0.05549349 0.027567217 0.0021348267 0.023557985 -0.058008432 -0.050214536
-0.029680816 0.005209111 -0.03968229 0.028764851 -0.039828002 0.025979212 0.110113226 0.047944188
0.061413337 0.016238503 -0.033804566 -0.032628052 -0.049507093 0.015446749 0.056609422 -0.056134734
-0.0045316936 0.06071385 0.10517702 -0.019548966 -0.0013163423 -0.03525921 -0.012760537 0.06484638
0.04897791 0.005224698 0.07622038 0.093314916 -0.05272538 0.074208006 0.08735055 -0.035406575
0.01731747 -0.010715592 0.115022786 0.044092897 -0.018665187 0.11471007 0.08145711 0.1152486
0.08815134 0.07050912 -0.023699977 0.02640369 0.090484634 0.025773497 0.044377014 0.06257697
-0.027346095 0.08682589 0.09040202 0.10012576 -0.049253352 0.023126742 0.013207879 -0.017049987
0.035546407 0.05375215 0.02320932 0.009595138 0.11219099 -0.029443879 0.056898564 0.07470135
-0.01052766 0.06320683 -0.022295222 0.07170588 0.10370853 -0.017290352 0.05141874 -0.0035731106
-0.05529235 -0.02854345 0.000581797 0.09963582 -0.013595924 0.01346333 0.06250767 -0.011014329
0.080270216 0.09891647 -0.053697105 0.09561617 0.08005206 -0.001398571 0.07274963 -0.033459876
0.056000788 0.09386973 0.07922537 0.08736059

predictor.0.weight f4 [2, 32]
00000000: 25e3 b1bf e73e d03f 5121 77bf 82cc 6bbf
00000010: db1a b1be 1adb 9f3f 9159 893e ea90 9cbf
00000020: 8ad9 7d3f 9aac 4ebf c691 7cbf dec1 6c3f
00000030: 5b0d 4fbd 7c5f ef3f d690 9c3f d4f2 2c3f
00000040: 9fa5 cabd a0d9 90be 4455 293f 641b c0bc
00000050: 271d 153f 7949 fd3e 1977 bb3f 6b98 023f
00000060: ee18 13bf b059 c0be a999 e23f 0fc5 9abf
00000070: 8f41 5d3f 580c 51bf b2c1 cf3d 393e aa3e
00000080: 34f7 0740 37e6 f1be 146a 40c0 9f86 04bf
00000090: e62c 82bf 69ba 3f3f 0803 2fbf a5b2 bcbf
000000a0: 9252 5dbf 9107 89bf 7614 c63e aafb 06bf
000000b0: 4218 84bd a9df 8d3f 6516 10bf 770b 2a3f
000000c0: f1d4 003e 4948 b3be 1a05 b43f 5870 d9bd
000000d0: 0e33 0fbf 1644 92be 4f45 e1bd e30c 9c3e
000000e0: a56e 3a3f 256c c1bf bc21 54bf 517d 463e
000000f0: c8f1 20be 07a3 e23f af78 8ebd 52f5 6ebf
-1.3897444 1.6269196 -0.9653521 -0.9210893 -0.34590802 1.248874 0.26826146 -1.2231724
0.99160063 -0.8073212 -0.9865993 0.9248332 -0.050549846 1.8701015 1.22317 0.67558026
-0.09894871 -0.28291035 0.6614573 -0.02345056 0.5824761 0.49470118 1.4645721 0.5101382
-0.57459915 -0.37568426 1.7703143 -1.2091388 0.8642816 -0.8165946 0.10144366 0.33250597
2.124463 -0.47245952 -3.0064745 -0.51767915 -1.0169952 0.74893814 -0.68364 -1.4742018
-0.8645412 -1.0705434 0.38687485 -0.5272776 -0.06449939 1.1083881 -0.5628417 0.66423744
0.1258123 -0.35016087 1.4064057 -0.10617131 -0.5593728 -0.2856757 -0.10999548 0.30478582
0.7282508 -1.5111128 -0.82863975 0.19383742 -0.15717232 1.7706002 -0.06956612 -0.9334308

predictor.0.bias f4 [2]
00000000: 3cd5 393d aac8 24be
0.04536937 -0.16092172
