log/our_model-v_kdd17-model_best.pth (torch_old, 164365 bytes, 13 tensors)

encoder.0.weight f4 [108, 7]
000000 d6 07 c3 bd 66 17 70 be 74 90 df 3d 5c 90 70 3d
       -0.09522979 -0.23446426 0.10916224 0.05873142
000010 9e 08 a3 3d 2a b8 3b 3b 99 10 4c bd 2b c3 a9 3b
       0.07960628 0.0028643706 -0.049820516 0.0051807365
000020 5d f6 a0 bd fe 6f 50 3c 99 65 82 3c f9 5f 8c bc
       -0.0785949 0.0127220135 0.015917586 -0.017135607
000030 6d b3 f8 bb 80 3a 5e bc 90 23 a0 3d 3d e0 f0 3d
       -0.0075897486 -0.013563752 0.07819283 0.1176152
000040 25 e2 24 bd e2 63 af 3d 34 ef c8 3d 77 4d 88 3d
       -0.04025473 0.08563973 0.098112494 0.066554
000050 20 2e 96 3d 7b 30 30 be 1d 26 0b 3d 47 32 13 3e
       0.073330164 -0.17205994 0.033971895 0.14374648
000060 3a b2 09 3e a5 ef ea bd 51 85 90 3e 07 19 52 3e
       0.13446894 -0.1147149 0.28226712 0.2051736
000070 7d 2a c0 b9 ff 1b 17 bd f1 96 85 3c c8 d3 bd 3d
       -0.0003665275 -0.036891934 0.016307326 0.0926891
000080 15 9c 82 3d 1d 83 66 3d 6c 7b 35 3e d0 da 30 3b
       0.063774265 0.056277383 0.17722863 0.002698589
000090 fe 4a f9 3d be d3 13 be 3c c6 54 3e 83 cf 7f 3d
       0.12172507 -0.14436242 0.20778745 0.062453758
0000a0 1e 2a 99 3e a4 9c 7b 3c a2 6d cc 3d b6 fe 1e bd
       0.29914945 0.01535717 0.09981848 -0.03881713
0000b0 e9 78 2a bd ff 79 93 bc c9 d0 58 3d 81 34 02 bd
       -0.041619215 -0.018002508 0.052933488 -0.031788353
0000c0 3b d2 96 be ce 2a b3 ba 55 ef 7b 3a c5 b4 be 3c
       -0.29457268 -0.0013669373 0.00096105534 0.023279557
0000d0 c4 2a aa 3c 23 35 af bc 8e be 80 bd 78 26 63 bc
       0.020772345 -0.021387642 -0.062863454 -0.013864152
0000e0 df 54 07 3e 3a 2a fd 3d ad 11 e7 bb ac 17 3a 3d
       0.1321597 0.1236157 -0.0070516677 0.04543273
0000f0 98 27 18 3e ba 6e cb bc ae 47 c8 bd 43 5f 83 3e
       0.14858854 -0.024833072 -0.09779297 0.25658616
000100 2b 03 b3 bd 69 29 f0 bd 8e 59 86 be 98 be c9 bd
       -0.087408386 -0.11726648 -0.262402 -0.09850806
000110 85 f2 d6 3c 60 47 01 3e 89 e2 e7 bc 55 8c 81 bc
       0.02623869 0.12624884 -0.028306263 -0.015813986
000120 75 62 d3 3c 08 15 81 bc 32 4a 01 be 66 ad e5 3a
       0.025803784 -0.015757099 -0.1262596 0.001752299
000130 c1 80 4e bd 4e 86 27 be 63 8d 71 3d 45 8f 30 be
       -0.050415758 -0.16359827 0.058972728 -0.17242153
000140 7e fc 5d bd 06 4e 23 3e 00 e4 41 3e a9 9a 56 3d
       -0.054195873 0.15947732 0.18934631 0.05239359
000150 0e 6f d9 3c cc 3b 83 3c 2c 4a 80 be ac 10 eb 3a
       0.026542213 0.016019724 -0.2505659 0.0017934046
000160 8c 6b 1f bd ea f9 5f bc c2 f8 a1 3b 9e e5 29 3d
       -0.038920924 -0.013670424 0.0049429843 0.041478746
000170 4d e4 9b bd 31 f7 e2 3d 0f 42 4c bc 1b f0 a9 3d
       -0.07611904 0.11082304 -0.0124669215 0.082977496
000180 a9 6a 6b 3c 1a e3 c9 bc 55 93 8f ba fc 10 11 3c
       0.0143686915 -0.024644423 -0.0010953943 0.008854147
000190 ca 25 b1 3d 5c 27 32 bc ba c9 7f 3d d7 53 d2 bb
       0.08649786 -0.010873642 0.06244824 -0.006418686
0001a0 a3 60 c9 bc a7 aa d0 bc 6e a2 b1 bd 98 10 b4 3d
       -0.024582213 -0.025471998 -0.08673559 0.087922275
0001b0 9a d1 5c 3e ec e5 a5 bc 08 73 49 be 73 50 bc 3d
       0.21564332 -0.020251237 -0.19672787 0.09195032
0001c0 57 25 3c 3d 41 c9 49 3e 11 d2 b2 bc 9d 9b 16 be
       0.045934048 0.19705679 -0.021828683 -0.147078
0001d0 e3 4b b5 3b ae a8 20 be c8 de b7 3b 13 41 da 3d
       0.005532728 -0.15689346 0.0056112744 0.10656943
0001e0 7d 96 38 be 10 21 00 3e 4c 8a 54 3e b4 bc 14 bc
       -0.18026157 0.12512612 0.20755881 -0.009078193
0001f0 10 0d 28 3d 2f 04 b4 bd 81 8b 64 3e bf 6a 27 be
       0.041028082 -0.087898605 0.22318842 -0.16349314
000200 7f c0 1a 3c f3 80 87 bd b0 31 71 be 3e 2d 19 bc
       0.009445309 -0.06616392 -0.2355411 -0.0093491655
000210 7e 7a f2 bd 5f 57 c3 bc a2 c4 39 be 4e f8 4a bd
       -0.1183977 -0.023845373 -0.18141416 -0.049553208
000220 6b 28 b2 bd 00 f9 00 be 06 3a d7 bc c2 b4 df 3d
       -0.08699115 -0.12594986 -0.026272785 0.10923149
000230 8f 54 56 3e fc fc 7c bd b0 5f 80 be b6 59 8b 3e
       0.20930694 -0.061764702 -0.25073004 0.27216882
000240 1b a8 ad 3e eb 5e 9f 3d 3a 80 d4 bd 7d b8 67 be
       0.33917317 0.07781776 -0.1037602 -0.2262897
000250 8e 99 7f 3e ca 64 68 3e 4b 90 78 3d a2 f3 18 3e
       0.2496092 0.22694698 0.060684483 0.14936689
000260 55 e6 68 3e 0a 8e 3b 3e 87 f4 2a be 12 1b 81 bd
       0.22744115 0.18315902 -0.16694842 -0.063039914
000270 19 6b 4f be a1 3b 51 bd a7 e5 0a bc 55 9d 9c 3e
       -0.20255698 -0.051082257 -0.008477605 0.30588785
000280 2e c3 85 3d 96 f6 8f 3d 2b ba 86 3c b5 9c 40 bd
       0.06531368 0.070294544 0.016446194 -0.047024447
000290 c8 1b ce bd f6 0d 80 bd b2 b2 b6 3d c2 40 f5 3b
       -0.100638926 -0.06252663 0.08920802 0.0074845264
0002a0 74 da 07 3d 19 1c 79 3d c7 eb 56 bd 56 2e 44 3e
       0.033167318 0.06081781 -0.05247095 0.19158301
0002b0 61 e3 14 be 32 c3 6f bb 8a db e6 3b 15 e8 89 3c
       -0.14539863 -0.0036584851 0.007045214 0.016834298
0002c0 36 8b 24 bb 67 8d 0e bc 26 e2 75 3c f0 c8 f2 3a
       -0.002510739 -0.008700705 0.015007531 0.0018523019
0002d0 37 c9 59 3d 00 f8 f9 3c 08 ba 81 3d a6 ce ec 39
       0.05317041 0.030513763 0.06334311 0.00045167393
0002e0 ec 04 20 3c 1a db 8a bc 09 ad 1d bd 84 f9 f2 bd
       0.0097667985 -0.016950179 -0.038495097 -0.118639976
0002f0 80 b5 2f bd fc b4 51 be 70 92 61 b9 bc 6f e1 bb
       -0.0428977 -0.20479196 -0.00021512224 -0.006879775
000300 73 61 2a bb 03 fb 3f bc 53 a3 90 bd 66 0f 09 bd
       -0.0025998026 -0.011717561 -0.070624016 -0.03346195
000310 fc f5 f1 3d bd 6c ba bc a1 0d 87 bd 7c e8 93 3d
       0.11814496 -0.022756929 -0.065943964 0.07222077
000320 24 3b ad 3d 3e ba 57 bd fd c7 5e 3d 72 83 1d 3c
       0.08458546 -0.05266785 0.054389942 0.009613859
000330 7a e3 a0 bd b7 d9 8a 3c fa 46 7b bd 9e 15 51 bb
       -0.07855888 0.016949518 -0.061346985 -0.0031903754
000340 75 fb 3e 3c bc 8b 35 bd 30 33 34 be e4 fa 1a 3c
       0.011656632 -0.044322714 -0.17597651 0.009459231
000350 76 b7 1a 3e 23 3e aa 3d 14 0e 69 3d b9 a6 9c bd
       0.15109047 0.08312633 0.05689819 -0.07648987
000360 4f 8c 4f 3c 4a a9 a9 bb 4d c0 83 bd 5e 48 68 3d
       0.0126677295 -0.0051776515 -0.06433163 0.05670964
000370 b9 8d f6 bd c5 96 de bc dd f8 01 3e 61 30 94 3e
       -0.1203875 -0.027171502 0.1269259 0.2894316
000380 e4 d7 10 be 30 bb 0c bc e7 c6 f0 bc 0e 6c e8 bd
       -0.14144856 -0.008589551 -0.029391719 -0.11348735
000390 53 92 e0 bd bd 29 24 3d d5 9f 9d bd 60 91 4a 3b
       -0.10965409 0.040078867 -0.07696501 0.0030909404
0003a0 7e cf 17 be 67 2d 12 bc 20 e3 1e 3e 3d e3 54 3d
       -0.14825246 -0.008921958 0.15516329 0.051974524
0003b0 81 e5 18 3c 9e bb ad 3c f3 7f 81 3d d2 f0 27 bc
       0.009332062 0.021207627 0.063232325 -0.010250287
0003c0 b5 0c 8f 3c 76 99 29 bc 88 75 14 bd 28 47 55 bc
       0.017462114 -0.010351529 -0.0362449 -0.013017453
0003d0 b9 05 7a bc c5 36 07 3e ab 92 1b be 91 85 9b bc
       -0.015260153 0.13204487 -0.15192668 -0.018984588
0003e0 cc 71 89 3d ba 8b d4 bc 8f 49 01 be ac cf 2d be
       0.06711158 -0.025945533 -0.12625717 -0.16973752
0003f0 62 e5 6b be 0b 57 2e be ae d2 04 bd 93 1f 51 be
       -0.23036721 -0.17025392 -0.032427482 -0.20422201

encoder.0.bias f4 [108]
000000 19 3f 87 3e d3 84 df bd 65 eb 70 be 78 a1 4b 3e
       0.26415327 -0.10914006 -0.23527296 0.19885814
000010 07 49 cf 3d f2 1a c7 3e 14 16 f9 3d e8 56 e1 bc
       0.10121351 0.38887745 0.12162414 -0.02750726
000020 ac 01 a2 3d 16 45 89 3c c7 b9 10 bc b0 26 10 be
       0.07910475 0.016756576 -0.008833355 -0.14077258
000030 42 96 17 bb 80 2f fc 3d 1c cf 6a be c7 ae 93 3e
       -0.0023130332 0.123137474 -0.22930568 0.28844282
000040 9c 89 af 3e 43 bb 97 3b 43 20 cd 3e a9 a3 ab be
       0.34284675 0.0046304776 0.40063676 -0.335233
000050 04 9b ac 3d 6c f3 f5 bd 5a 60 97 3c 7c f3 56 3e
       0.084280044 -0.1200932 0.018478561 0.2099132
000060 62 36 b5 3b 1a a6 28 be 36 38 a5 3c 1d 24 3c 3b
       0.0055301646 -0.16469613 0.020168405 0.0028708049
000070 9b 86 56 bc 94 00 43 bc 3d 64 a1 3d 79 84 7a 3e
       -0.013093616 -0.011901993 0.07880447 0.24464597
000080 48 24 1a 3e 10 ac 25 bd 63 32 2e be 27 e5 6c 3e
       0.15052903 -0.040447295 -0.17011409 0.2313429
000090 8c 85 90 3e 79 02 cf 3b cd 4e 87 be 6f 77 8b 3e
       0.28226888 0.0063174334 -0.26427308 0.27239558
0000a0 52 f1 8b 3e de 26 a2 bd 04 29 3a be da e8 7c be
       0.2733255 -0.079175696 -0.18179709 -0.24698201
0000b0 c4 3c b8 3e 5f ca 54 be 25 cf d7 bd d9 bc 90 be
       0.3598386 -0.20780323 -0.105375566 -0.2826908
0000c0 2f ba 44 3e 9d cd 17 3e 7f 13 e4 3c 33 04 1e 3e
       0.19211648 0.14824529 0.027841328 0.1543129
0000d0 94 bd 41 be c8 0f b8 3b ee d9 5a be fb ad 3d 3e
       -0.18919975 0.0056171156 -0.21372196 0.185234
0000e0 64 27 19 3e 66 ea 31 3e 08 6b e5 bd 69 ef a3 bd
       0.14956433 0.17374572 -0.11202055 -0.08004648
0000f0 16 81 4e 3e 9c 66 7a 3e e2 08 36 3e 75 02 5c be
       0.2016643 0.24453205 0.17776826 -0.21485312
000100 f6 a7 9c 3e 45 fc 39 be ab d3 a5 3e 36 6f 3c 3e
       0.30596894 -0.1816264 0.32388052 0.18401799
000110 fd 53 a4 3e 65 33 b5 3e a2 97 33 3e a1 00 ac bd
       0.32095328 0.35390773 0.17538312 -0.083985575
000120 06 fb 6f be b2 78 69 be b2 42 35 bc dd ec 86 be
       -0.23435602 -0.22799948 -0.011063265 -0.26352587
000130 d1 6a 75 3e 63 bb 94 be a9 ae 96 3e 3c 6f 88 be
       0.23966528 -0.29049215 0.2943013 -0.26647365
000140 ca 63 d8 3d d2 ce ba 3d 49 c3 bf 3c 8b e7 59 3e
       0.10565908 0.09121479 0.023408549 0.21279733
000150 bd e8 cd bb c4 b8 91 bd 69 1d 2c bc d2 c1 b5 3e
       -0.006283848 -0.07115319 -0.010505059 0.35499436
000160 ac 13 4c bc f0 6b c3 bd f6 ee 28 3e bd 1d 86 be
       -0.012455862 -0.09542072 0.16497406 -0.26194564
000170 dd 0d fe 3a c1 58 98 3e a7 c6 44 bd 30 89 bb 3d
       0.0019382794 0.29755214 -0.048041012 0.09157026
000180 6a bc da 3d d5 04 6f be d3 6f b1 3e c5 d6 b8 bc
       0.106804684 -0.23341687 0.34655628 -0.022563348
000190 df 85 82 bd e3 10 8c 3d 6f 7a 8b be f7 5f 9a 3e
       -0.0637319 0.068391584 -0.27241847 0.3015134
0001a0 d2 7b 81 be 2e 1b 8e 3e 2e 50 04 bd 6b 8f 81 be
       -0.2528978 0.2775511 -0.032303028 -0.25304732

gat_layer.0.weight f4 [1, 14]
000000 54 72 8b be 32 87 a7 be 7e 0e 41 3f 65 ab 36 3f
       -0.27235663 -0.32720333 0.7541274 0.7135528
000010 bb 86 17 40 3d e9 78 be 95 73 5c bf 09 df 07 3f
       2.3675983 -0.24307723 -0.86113864 0.530747
000020 12 ea 06 40 9e ce d1 bf c7 c0 f2 bf 2b 2d 30 3e
       2.1080365 -1.639118 -1.8965081 0.1720473
000030 d0 de d6 3f c6 08 d9 3e
       1.6786747 0.42389506

g_cop.off_diagonal_val f4 [91]
000000 73 54 71 3f 06 cc fe 3e 06 24 14 3f 0b df 4c 3e
       0.94269484 0.49765033 0.5786747 0.20006959
000010 a1 06 47 3f 1b d5 ed 3e 60 6c be 3e c4 21 87 3f
       0.7774449 0.4645165 0.3719206 1.055718
000020 a7 32 af bb 73 08 25 3e f9 8d 48 3f 2a d2 17 3f
       -0.0053466144 0.16116504 0.78341633 0.5930506
000030 95 54 c7 3d 07 9f da 3e 4e 18 a9 3e f3 f3 96 3e
       0.097329296 0.42699453 0.33026356 0.29482993
000040 4e 2d 41 3f 0f ef 53 3e 8b a6 1f 3e bc bc 0b 3f
       0.75459754 0.20696662 0.15590875 0.5458486
000050 23 ed a7 3e 2c 33 66 3f 15 4f 25 3f d3 c7 a3 3e
       0.32798108 0.8992183 0.64573795 0.3198839
000060 ea a3 70 3e 3e 44 5a 3f 05 63 6a 3f 77 c0 b4 3e
       0.23500028 0.8526038 0.9155734 0.3530309
000070 81 21 12 3f 29 37 72 3f 5d 54 5b 3f 62 63 22 3f
       0.5708237 0.9461542 0.85675603 0.63432896
000080 24 7a 3a 3f 71 58 dd bc 7a 9d 40 3f 72 e7 50 3e
       0.7284262 -0.027019711 0.7524029 0.2040079
000090 ad 7f 8b 3f 49 b9 82 3f 56 f9 5a 3f 03 96 76 3f
       1.0898339 1.0212795 0.85536706 0.9632265
0000a0 99 ca 22 3e 9f 84 35 3e 47 ca 40 3e 83 1e 20 3f
       0.15897597 0.17726372 0.18827163 0.6254656
0000b0 a9 22 3b 3f 57 2a ac 3e e8 df 8d 3e c4 59 8e 3d
       0.7309976 0.33626053 0.2770989 0.06950715
0000c0 05 38 59 3f 36 47 01 3e 86 60 16 3e 8a 9b 81 3f
       0.84851104 0.12624821 0.14685258 1.0125592
0000d0 d2 60 d2 3e 5c 11 2a 3e 86 c5 62 3e fb 6c 1d 3f
       0.41089493 0.16608185 0.22145662 0.61494416
0000e0 f8 28 e0 3c fe 6d 30 3f 46 0c 6c 3f 70 e1 f3 3e
       0.027363285 0.68917835 0.9220623 0.47632933
0000f0 be ea 18 3e 8a 6b 58 3f 2f 04 7b 3f 2b e2 5b 3f
       0.14933297 0.8453909 0.9805326 0.8589198
000100 bb 11 b3 3d 77 1c 3e 3d 7e 82 85 3f a7 fe 1d 3f
       0.08743616 0.046413865 1.0430448 0.61716694
000110 8b 82 31 3f b6 67 54 bd 0d d3 83 3f 0b fa d1 3e
       0.6933982 -0.05185672 1.0298783 0.4101108
000120 3d e1 3c 3f 70 6a 10 bd 82 fe d2 3e f3 6f 98 3d
       0.73781186 -0.035257757 0.412098 0.074432276
000130 c3 4c 6b 3f 53 42 d4 3d 7c 63 4a 3f 4b 7d d1 3d
       0.91914004 0.10364213 0.7905805 0.10228976
000140 32 ca 00 3e 23 3b 54 3f 5f 85 51 3f 8d 6d 80 3f
       0.12577131 0.82902735 0.81844133 1.0033432
000150 bf 4d 6b 3f c8 eb 6e 3f 4a 5f 3c 3f 39 f4 59 3d
       0.91915506 0.93328524 0.735829 0.053211424
000160 d2 a3 5a 3e 76 c4 a7 3e 2c 58 60 3e
       0.21351555 0.32767075 0.21908635

g_cop.diagonal_val f4 [14]
000000 a2 60 af 3f f1 0c 74 3f 79 fb f7 3f 99 67 ad 3f
       1.3701365 0.95332247 1.9373618 1.354724
000010 c1 d7 ac 3f 27 12 81 3f ee 6b b7 3f 4b b9 86 3f
       1.3503343 1.0083665 1.4329813 1.0525297
000020 e7 6e 02 40 f3 08 9d 3f 44 cb c6 3f 71 b5 a7 3f
       2.038019 1.2268356 1.5530782 1.3102247
000030 6c d3 aa 3f 15 45 98 3f
       1.3345771 1.1896082

gru.weight_ih_l0 f4 [162, 108]
000000 3f 74 10 3d d0 af 6e 3d 2b 49 b4 3c 3d eb 04 3e
       0.03526711 0.058273137 0.022007545 0.12980361
000010 e1 0d 67 bd 2e 8f be 3d 8b 14 5f 3d 5e 71 06 bd
       -0.05640972 0.09304653 0.05446295 -0.03282296
000020 8d 9e b2 bc 33 da 3d bd 6d 35 ed bc ad 7f 74 3c
       -0.021804119 -0.04635067 -0.02895614 0.014923018
000030 59 14 75 3c a9 2a e4 bc 38 42 8b 3c 3c 02 9f 3b
       0.014958465 -0.027852373 0.016999349 0.0048525613
000040 ce 3e be 3d 3b 42 08 3c 80 8b 25 be 23 bf 5e 3c
       0.09289323 0.008316572 -0.16166496 0.013595375
000050 b5 58 44 bd b4 6f 02 3e bb 38 52 3e 73 1e 2d 3e
       -0.04793616 0.12737924 0.20529453 0.16906147
000060 48 dd bb 3d 96 f2 1c bc 16 1c 7f 3a d6 c4 40 bc
       0.091730654 -0.009579321 0.0009731663 -0.011765679
000070 6e d1 5e 3d 58 f8 9b bc b4 b6 db bc 62 bf 0e 3e
       0.054398946 -0.019039318 -0.026820518 0.13940194
000080 4f 97 d2 bd a8 3a 8c 3c 08 a8 2a be 14 b2 6a 3d
       -0.10282766 0.017117813 -0.16665661 0.057298735
000090 53 99 b1 3d 4f 35 29 3e 17 35 09 3e a1 87 0e 3e
       0.086718224 0.16524242 0.13399158 0.13918926
0000a0 29 1e 67 bb 8e 9c 13 3d 5a 5c 68 3d f4 91 7b bc
       -0.003526578 0.036037974 0.0567287 -0.015354622
0000b0 fb d2 fc 3b 81 d9 d7 bd bf 7f 18 3e ea 23 94 3d
       0.0077155805 -0.105395325 0.14892481 0.072334126
0000c0 3e 21 cd 3d fb 04 73 bd c9 ad 73 bb 5e 29 2b bd
       0.10016106 -0.05933092 -0.0037182441 -0.041787498
0000d0 b1 f7 8d 3d 0b d2 88 3c 8b 2d 95 3d da c8 25 be
       0.06932009 0.016701719 0.07284077 -0.161899
0000e0 68 62 0e bd 44 8b 55 bd 34 af 4e 3e 6c bf b8 bc
       -0.034761816 -0.052134767 0.20184022 -0.022552215
0000f0 8a 1a ef bc 0c 66 83 bd 05 5d 53 3d 01 51 a3 3c
       -0.02918746 -0.06415948 0.051602382 0.019936087
000100 2e 05 13 3e a4 03 a6 3b 0e 53 7e bb 24 be 03 3e
       0.14357445 0.005066352 -0.0038806829 0.12865502
000110 b2 3b 0c bd 75 c8 c0 3d ea 0a 05 be 57 52 8a bc
       -0.034236617 0.09413234 -0.12992445 -0.016884966
000120 16 19 15 be 77 4a 2b 3d 87 d2 ab bd 83 ae 83 3b
       -0.14560351 0.041819062 -0.08389764 0.004018606
000130 af 12 c8 3c 8a e3 3b 3d 8d 66 2a 3d cc 20 81 3d
       0.024422972 0.045871295 0.041601706 0.06305084
000140 2c 33 95 3b 57 ae a4 bd f8 5d 71 3d f9 33 1b bd
       0.0045532193 -0.08041065 0.058927506 -0.03789136
000150 a7 cf bd 3d 5c f6 2c 3d 47 75 4f 3d 43 1e 1c 3d
       0.09268122 0.042227134 0.050648954 0.038114797
000160 b2 c7 80 bc ad 9d 3a 3e 71 40 35 3d 7b ff b2 bd
       -0.015720222 0.18224211 0.04425091 -0.08740135
000170 b7 92 88 3c 0b 87 6d 3d 69 d6 fc 3d 93 30 67 3d
       0.016671522 0.057990115 0.12345583 0.05644281
000180 5a 19 ce 3d 22 d2 81 3c f9 9d e8 bc 32 41 ca bb
       0.10063429 0.01584727 -0.02839564 -0.0061723227
000190 25 ec 09 bc 1b 11 8e bd 59 8e 80 3c d7 08 e0 3d
       -0.008418118 -0.06936856 0.015692877 0.10939186
0001a0 c3 0b 1c b8 d0 eb 77 3c 48 71 6a bc 86 96 f7 bc
       -3.7204252e-05 0.015131906 -0.014309235 -0.030223142
0001b0 e8 1e af bd ea f9 3e 3c 8a f8 23 bc b5 79 05 3e
       -0.08550817 0.011656264 -0.010007987 0.13034709
0001c0 b8 fe fb bd 49 1e 2c 3c 3f 2a 61 3c f0 22 7c b9
       -0.12304443 0.010505267 0.013742982 -0.00024045608
0001d0 b3 8d 0a 3c 47 a2 9b 3d 9d 81 60 bd 81 b4 07 ba
       0.008456635 0.07599311 -0.05481111 -0.00051767385
0001e0 e5 54 f0 bd 8e 29 e0 3c 17 57 c5 3a fd 59 eb 3d
       -0.11734942 0.027363565 0.0015055862 0.11491773
0001f0 30 85 80 3c bc f0 35 3c 34 3e 05 3d eb 22 db ba
       0.015688509 0.011104759 0.032530025 -0.001671878
000200 0a b8 ec 3b 65 17 0a 3d 87 44 fd 3d d2 df 49 bd
       0.0072240876 0.033713717 0.12366586 -0.049285717
000210 32 19 06 3c 9f 14 8a bb ba a6 3b bc 63 dd e7 3d
       0.008184718 -0.004213884 -0.011453325 0.11321523
000220 f0 a9 60 3c c6 d4 a8 bb 31 22 3f 3c 2b 57 6a bd
       0.013712391 -0.0051523177 0.011665867 -0.057212036
000230 20 a6 86 bd 87 06 b7 3b 70 c3 94 3a 9a a7 6f 3d
       -0.065746546 0.005585495 0.0011349749 0.058509447
000240 e3 25 de 3d ff 74 0b bc c8 d2 86 3c af f3 ad bd
       0.1084707 -0.008511781 0.01645793 -0.084937446
000250 72 05 7b ba 20 e9 89 3d 00 6e 91 3d 02 89 c3 bc
       -0.00095757016 0.06733918 0.07101059 -0.023869041
000260 67 c2 b4 bd b4 9f 92 3c 72 ec 98 3b 3b 0e 07 bb
       -0.08826142 0.017898418 0.0046668584 -0.0020607847
000270 00 e5 73 3d 42 0a c5 3c ee 31 4a 3c b2 c6 0c 3d
       0.059544563 0.024052743 0.012341006 0.034369178
000280 18 ca b3 bb 95 53 59 bc b3 0c 3e bc b0 0e 0b 3e
       -0.005486738 -0.013264556 -0.011599707 0.13579822
000290 c6 82 3c be 92 3d be 3d 1d 56 fd bc 4f 6c 97 bd
       -0.18409261 0.09289087 -0.030924851 -0.07393705
0002a0 5b 15 93 3c 2e bc 00 3d 65 ab 0d 3e 94 66 2d bd
       0.017954519 0.031429462 0.13834913 -0.042334154
0002b0 3f bb bd bc 0a 9b 42 bd b8 48 ab 3d 06 ce 5f be
       -0.023160575 -0.047511138 0.083634794 -0.21855935
0002c0 84 5a 0c bc 3f 2c c0 bd 9f 49 e5 3c 56 54 c8 3c
       -0.0085665025 -0.09383439 0.027989207 0.024454277
0002d0 68 cf c7 bd da f5 0b 3d 8a 01 dc bc f1 3b 8c 3b
       -0.097563565 0.03417001 -0.026856203 0.0042796065
0002e0 0a c8 47 3d 31 d7 b4 3d 39 72 17 3e 08 08 db 3c
       0.048774756 0.08830107 0.14789666 0.026737228
0002f0 ac b8 90 bd 5a db ae be c6 43 77 3c a2 70 ca 3c
       -0.07066473 -0.34151727 0.015091842 0.02471191
000300 f9 1b 0e bd f3 41 c6 bd a1 63 3c 3c 9a 14 37 3d
       -0.034694646 -0.096805476 0.011498363 0.04469738
000310 18 d4 af 3c c5 3b f7 39 b1 55 bc 3c ff 1f 58 bb
       0.021463439 0.00047156043 0.02299008 -0.0032978056
000320 09 28 35 bc be 4b 54 be 4e f7 a0 3d a0 30 2c 3b
       -0.011056908 -0.20732018 0.078596696 0.00262741
000330 90 48 1b bc 90 c2 b0 3c 2d 39 64 3c 3b 05 4a 3d
       -0.0094777495 0.02157715 0.013929647 0.049321394
000340 dd 4d 4f 3c c1 a1 13 be 1f 53 37 3c 29 a6 53 3d
       0.012652841 -0.14417173 0.011189251 0.051672135
000350 04 bf ba bb f2 fe 8e bd ee 9e 84 bc a5 cd ea 3c
       -0.0056990404 -0.06982221 -0.016189065 0.028662512
000360 54 e8 1f 3d 16 0a a3 39 8d 07 7a bd 94 4f a2 3d
       0.039039925 0.00031097297 -0.061042357 0.079253346
000370 d4 3c 7f 3d c3 bb f1 3c 8e 4c 51 3c 95 f0 9c 3b
       0.06231387 0.029508477 0.0127746 0.004789422
000380 19 16 f9 3d 6e 9d 05 be c5 69 9d bb e8 0a fb bc
       0.12162418 -0.13048336 -0.0048038685 -0.030644849
000390 ee a3 f0 bb 5c 0d 05 bc d7 01 9a 3a 42 cc 3a be
       -0.0073437607 -0.008120861 0.0011749816 -0.1824198
0003a0 b5 f3 fb 3d 8a f4 78 ba 7d 30 dc 3d fc 8f 3d bd
       0.12302343 -0.00094968884 0.10751436 -0.046279892
0003b0 a8 15 13 be 6c 23 e3 3d a4 83 0c 3d fb 39 03 3d
       -0.1436373 0.110907406 0.03430523 0.032037716
0003c0 1a bc d7 3d 4e f4 9a 3c e3 21 57 3c b8 97 a6 bb
       0.105339244 0.018915322 0.013130638 -0.0050840043
0003d0 8e 73 87 3d 89 24 5c 3d 1e 46 c7 bd 22 cd 88 3d
       0.06613837 0.05374578 -0.09730171 0.06679751
0003e0 cc 45 f5 3d 84 f7 9a bb 75 c7 90 38 76 fe 2b 3d
       0.11976203 -0.004729213 6.903607e-05 0.04199072
0003f0 d7 a2 0b be 51 f1 6b 3d e8 cf 09 bb 64 91 54 3e
       -0.13636337 0.057603184 -0.0021028463 0.20758587

gru.weight_hh_l0 f4 [162, 54]
000000 1a 78 1f bc c9 d7 08 bd 04 6d 0f 3d 35 47 4e bd
       -0.009733224 -0.033408914 0.035016075 -0.050360877
000010 84 3a b3 3c c3 b6 0f be e4 54 92 bd b3 7f 3c be
       0.021878488 -0.14034562 -0.07145098 -0.18408088
000020 c4 bd 15 be df f5 32 bc 63 03 82 bd 4b 3f e1 3d
       -0.14623171 -0.010922878 -0.06348302 0.109984
000030 6c f7 87 bd 95 42 43 3d 94 44 3c 3e 1f 2d ac bd
       -0.06638989 0.04767092 0.18385535 -0.08407044
000040 c6 26 ce bb 68 fa 08 be 4d b1 fd bd 5d c7 b3 bd
       -0.0062912432 -0.13376772 -0.12387333 -0.0877826
000050 9e f8 0f 3e b5 67 fa bc 6b 2b f9 bc 4b ea 80 bd
       0.14059684 -0.03056703 -0.030416211 -0.06294688
000060 03 e8 be bd 42 62 47 be cc b8 fc 3d 2a 0c 92 3b
       -0.093215965 -0.19471076 0.12339935 0.0044570165
000070 de 1c f3 3d 7d 66 0c be 67 98 e3 bd 52 8b a9 bd
       0.1187074 -0.13710971 -0.11113053 -0.08278526
000080 15 97 21 3e 10 33 95 bd bf ee 1f 3c 64 70 07 be
       0.1578029 -0.0728513 0.009761511 -0.13226467
000090 18 1b 35 be 76 68 32 be 58 13 2e be ed 9e 18 3e
       -0.17686117 -0.17422661 -0.16999567 0.14904375
0000a0 91 45 67 ba b4 f6 ba bd cb 5a 7c bd 72 68 e9 3c
       -0.0008822317 -0.09129086 -0.061610024 0.028492186
0000b0 48 4c da bd eb ea 82 3d 43 d5 30 bd f6 f1 a6 3d
       -0.10659081 0.06392463 -0.043172132 0.08151619
0000c0 e0 1c dd 3d 95 cb 96 bd 20 89 5c be fc 02 aa bd
       0.10796523 -0.07363049 -0.21536684 -0.083013505
0000d0 a2 14 35 3e da 94 a0 bc e2 a3 66 3d 32 66 3e 3c
       0.17683652 -0.019602228 0.056308635 0.011621045
0000e0 15 1e 31 bd 53 8d a2 3c fa 49 b6 3c fd 27 ff bd
       -0.04324158 0.01984278 0.022252072 -0.12458799
0000f0 14 04 ae 3d c5 a9 38 3d c2 b4 8f 3d f7 62 9f 3b
       0.084968716 0.04508378 0.07016899 0.0048640925
000100 ab 2e d8 3c b1 7f 80 3d 48 53 41 3d 2a 2f b9 bd
       0.02638944 0.06274355 0.047198564 -0.09042199
000110 d3 87 83 bd 2e f2 e2 bd 41 60 e7 3b 56 50 3f be
       -0.06422391 -0.11081348 0.007061035 -0.1868299
000120 54 0f 0c be 29 cb c2 bc 0e 3b 01 3e db 3e ae 3d
       -0.13677722 -0.023778515 0.12620184 0.085080825
000130 97 54 2c 3d 71 80 56 be f8 98 81 3d 93 b7 5c bd
       0.04207286 -0.20947434 0.063280046 -0.053886008
000140 55 d7 89 bb 18 a7 48 bd 34 e4 ac bd e9 bd e0 bc
       -0.004206578 -0.048987478 -0.08441964 -0.027434306
000150 64 5e 20 be 62 45 39 3e b1 71 8c bd 20 5e 81 bc
       -0.15661007 0.18092874 -0.068576224 -0.015791953
000160 09 0f 80 bc a7 49 d3 3d 77 9d 96 be 1e dc 91 bc
       -0.01563217 0.103167824 -0.2941701 -0.017805155
000170 59 72 fa bd ea 06 f2 bc 8d fd 02 bd 89 42 87 bd
       -0.12228841 -0.029544313 -0.031980086 -0.066044874
000180 a3 96 cd 3d bd 66 3e be da 2b 8e bd df 90 6d b9
       0.10038497 -0.18593879 -0.06941958 -0.0002265605
000190 be ae 1e bd 17 42 12 bc 0e 7f 3f 3e 29 78 d1 3c
       -0.038740866 -0.00892689 0.18700811 0.025569992
0001a0 6c ab 70 3d 28 9c 58 3d 01 e6 a1 bc e3 ef c4 bc
       0.05875723 0.052883297 -0.019762995 -0.024040168
0001b0 bf 43 02 3d ff 13 3e 3d c4 93 ea bc 9e 6f 44 bd
       0.03180289 0.04640579 -0.028634913 -0.04795801
0001c0 3b 7a cd 3d d7 47 de 3b 09 f1 02 3e 66 63 1a 3d
       0.10033079 0.0067834663 0.1278726 0.03769245
0001d0 85 62 6f bc af af 67 3d 73 ac 31 be cb 12 ea 3a
       -0.014610891 0.05656403 -0.1735094 0.0017858384
0001e0 89 4d 50 3d 00 ed 12 be aa 88 54 bb ed 6b dd 3d
       0.050855193 -0.14348221 -0.003243009 0.10811601
0001f0 43 ff 11 bc c5 4b 8b 3d d2 fe 2f be 13 60 32 3e
       -0.008910957 0.06801561 -0.1718705 0.17419462
000200 b5 c5 8f 3d 35 94 6b 3d 0d 9e a6 bd 20 2b 0f be
       0.070201315 0.057514388 -0.081356145 -0.13981295
000210 cd 1d 49 3d 9c fa 21 bc 51 3b bd bd 6c ce a5 bd
       0.049100686 -0.00988641 -0.09239829 -0.080960125
000220 41 82 ed 3d 8a 54 67 3d d7 e6 10 bb 2b f6 67 bc
       0.115971096 0.056477107 -0.0022110248 -0.014157812
000230 4e 69 31 3a 7c 9a 71 bd 9a c1 2e 3d a8 1d ab bd
       0.0006767706 -0.05898522 0.0426651 -0.08355266
000240 67 a2 76 3d 46 39 f9 3c a9 e1 e5 3c e6 66 ea 3c
       0.060213473 0.030422818 0.028061705 0.028613519
000250 c9 a8 07 be 89 c7 e6 3b bd af 29 3b 78 3c 2f 3d
       -0.1324798 0.0070428294 0.0025892102 0.042782277
000260 cd d7 8f bd 8d fe 6b 3c aa b7 cd bd c7 bf b3 3c
       -0.070235826 0.014403951 -0.10044797 0.021942033
000270 f6 00 11 3e b5 a5 8d 3c a8 32 ea bc 08 68 50 3e
       0.14160523 0.01729093 -0.028588608 0.20352185
000280 c6 58 d3 bd 9c 60 e6 bd ca d9 b0 bd 8c ee 5b 3d
       -0.103196666 -0.112488955 -0.0863529 0.053694293
000290 ac 4f b8 bb 1c b7 1c bd ea 1f 2d 3e 94 29 71 3d
       -0.005624732 -0.038260564 0.16906705 0.058877543
0002a0 8a 97 e9 bc d1 af 95 bd 81 94 86 3c 7f 0c 5e bc
       -0.028514642 -0.07308925 0.016428234 -0.013552784
0002b0 84 cb 11 bd 33 36 6e 3d 05 28 0b 3b e3 43 b4 bc
       -0.03559448 0.058157157 0.002123357 -0.022005027
0002c0 f9 8b 00 3d eb 17 12 bd 37 37 8c bd b8 17 ac bc
       0.03138349 -0.03566734 -0.06846469 -0.021007404
0002d0 17 06 01 bd 29 5d ac 3c 48 1f 34 3e b7 75 a2 3d
       -0.03149995 0.021040516 0.17590058 0.079326086
0002e0 96 7c 17 3c c0 ac 9e bd bd 3c 5b 3b 88 23 f9 3d
       0.009246012 -0.07747793 0.003345295 0.1216498
0002f0 d9 12 31 bd 5d 69 86 bc 87 2d f9 3d d0 17 24 3d
       -0.043230865 -0.016407663 0.12166887 0.040061772
000300 e2 ff 91 bb 80 c1 44 3d 35 c6 ff 3d 8f 73 21 3d
       -0.0044555524 0.0480361 0.12488977 0.039416846
000310 07 29 2e 3d 78 d7 95 3c 92 d7 21 3c a8 44 88 bd
       0.042519595 0.01829122 0.009878056 -0.0665372
000320 19 a8 99 bc fd 86 c8 3d 33 88 c8 bd 79 02 0c 3d
       -0.018756913 0.09791372 -0.09791603 0.034182046
000330 96 55 40 be 32 48 35 3e 15 bb 60 bd e4 3c 95 bb
       -0.18782648 0.17703322 -0.054865915 -0.004554378
000340 38 1c cc bc 0e 11 c5 3b a5 eb cb bc 55 ca e1 bd
       -0.0249158 0.006013996 -0.024892638 -0.1102492
000350 ea ba cc 3d 02 50 75 3d f1 9b d1 3d 3b 2d aa bd
       0.099965885 0.059890755 0.102348216 -0.08309408
000360 bf a3 32 be 97 6b 85 3c 5b db ab bd b3 62 9c 3c
       -0.17445277 0.016286654 -0.08391448 0.019090032
000370 80 44 04 3e 25 63 43 3d 08 f1 5f 3e e7 af 0a 3e
       0.12916756 0.047701973 0.2186929 0.13543664
000380 05 d6 df bd 7a 60 9f 3c 8b 1f 4c bd 92 ce d8 3b
       -0.10929493 0.019455183 -0.04983477 0.006616422
000390 f0 60 ee 3d c0 7e b2 bd aa b5 4a 3d 42 33 75 3c
       0.11639583 -0.08715582 0.049489655 0.014965834
0003a0 59 98 b4 bd c3 c0 fa 3d 2b d2 05 be 57 70 49 bd
       -0.088181205 0.12243798 -0.13068454 -0.0491794
0003b0 81 f2 ef bd 8a 74 24 3d a6 12 18 bd cf 37 25 bd
       -0.11716176 0.040150203 -0.03712716 -0.040336426
0003c0 7a c4 aa 3d ec e4 0c be 20 b7 10 3d 18 ef f1 3d
       0.08338256 -0.13759202 0.03533089 0.11813182
0003d0 38 74 8f bc 05 03 0a bd e4 8c ef bd bf b7 a6 bc
       -0.017511472 -0.033694286 -0.11696795 -0.020351289
0003e0 84 c7 c9 3c f7 5f c3 bd c4 b1 b7 bc 24 ed 00 3a
       0.02463127 -0.09539788 -0.022423632 0.0004918149
0003f0 15 62 43 bd a7 26 44 bd 30 c5 e7 bd 73 52 72 bc
       -0.04770096 -0.047888424 -0.113169074 -0.014790165

gru.bias_ih_l0 f4 [162]
000000 4a 0a 40 bd 7e dc a9 3d 12 94 79 bc 00 00 b1 bd
       -0.046884812 0.08294009 -0.015233057 -0.08642578
000010 cb 21 8d 3d 17 e0 ef 3d c6 bb 7b 3c a1 d6 e7 3d
       0.06891211 0.117126636 0.015364593 0.11320234
000020 26 29 11 bd 5d 49 03 3e b0 7b 89 3c b1 c9 6c bd
       -0.035439633 0.12820955 0.016782612 -0.057809535
000030 32 35 78 bd fe 60 cc bd 68 3c 8d 3c 7a d1 94 bc
       -0.060597606 -0.09979437 0.017240718 -0.018166292
000040 bd 4d 15 be 18 b1 0c be 7e 31 fe bd a4 0a b0 3a
       -0.14580436 -0.13739431 -0.12411784 0.0013430906
000050 99 5a 1c bd 04 b7 93 bd 1c 8d 96 bd 0f 1a a5 3c
       -0.03817234 -0.07212642 -0.07351133 0.020154027
000060 15 89 f8 3d 74 3a 7d bc 20 fa a2 3d 09 5c aa 3c
       0.12135521 -0.015455831 0.07957864 0.020795839
000070 13 11 e3 3d 8d 95 56 3d 54 d0 90 3d cf 50 d4 bb
       0.11087241 0.052388716 0.070709854 -0.0064793597
000080 43 08 a3 3d 4c 9a 9e 3d b7 ac 5a 3c 2e e8 23 3d
       0.0796056 0.077442735 0.0133468425 0.040016346
000090 67 5b 6b bb ae 6e a1 bd df ef 28 3c 26 26 f3 3d
       -0.0035912634 -0.078824386 0.010311096 0.118725106
0000a0 a9 ee 3d 3d 17 db d4 3d c9 66 e9 bd 22 2c 21 ba
       0.046370182 0.103933506 -0.11396558 -0.0006148239
0000b0 aa 82 f6 3d 57 db 13 3d 46 4a 9a 3c 95 c6 b4 bd
       0.12036641 0.03609785 0.018834244 -0.08826939
0000c0 07 4c 2f bc 7e 64 58 bd cb 84 3f bd 30 de 6e bc
       -0.010699279 -0.05283021 -0.0467575 -0.014579341
0000d0 1a c4 bf bd 7c 53 2c 3d ad 4b 30 bd 2b 8c fb 3c
       -0.09363575 0.042071804 -0.04304092 0.030706486
0000e0 d8 af 07 3c 7a e9 39 3c 50 3a b4 bc 9b cb a0 3d
       0.0082816705 0.011347169 -0.022000462 0.07851335
0000f0 6f 97 79 3d fc 5a 8a bd 08 b0 7c bc 2c 07 83 bb
       0.060935434 -0.06755635 -0.0154228285 -0.0039986577
000100 e4 0e 24 bd f0 34 b4 bd 02 e9 37 3d a3 6c 84 bd
       -0.040053263 -0.087991595 0.044899948 -0.06466033
000110 bd 5b ba bd 02 ad 7b 3b ea 91 9a bd db 94 3c 3b
       -0.09099529 0.0038402681 -0.07547362 0.0028775248
000120 3d 4e ac 3d 37 55 03 3d e3 ac 5f bc 50 5d c2 bd
       0.0841336 0.03206369 -0.013652059 -0.09490454
000130 2b a7 50 bd 1c 21 22 bd fa 48 3d bd e7 d9 54 3c
       -0.050940674 -0.039582357 -0.046212174 0.012991405
000140 7b f4 9f bd df c7 8b bd 71 5a 0f 3d 7c 71 15 bd
       -0.07810303 -0.06825232 0.03499836 -0.03648518
000150 5a ff bb bd 6f a1 05 bd 74 19 e3 3d 2d 62 ad bd
       -0.09179564 -0.03262466 0.11088839 -0.08465991
000160 e2 a2 09 3d fc 05 2a bd 6e 24 d2 3d c4 eb e7 3d
       0.033602603 -0.041509613 0.10260855 0.113242656
000170 ff 5f 80 3d fc 61 89 bd 25 7f bd bd 1c 07 9b 3d
       0.0626831 -0.06708142 -0.092527665 0.075697154
000180 34 4d c8 bd 84 de 39 3c a3 54 ad bc e0 09 95 3d
       -0.0978035 0.011344556 -0.021158522 0.07277274
000190 b3 3c bd 3d 91 28 4e bd 9f ed a7 bd 94 bd 54 3d
       0.09240093 -0.050331656 -0.081996195 0.05193861
0001a0 c5 d7 70 bd dd 33 52 bc 0a 19 bd 3d 63 d6 6a bd
       -0.058799524 -0.012829748 0.092332914 -0.05733336
0001b0 2a ae 33 bd ff 5b 80 37 cc 4a 52 3c 88 34 0f 3e
       -0.043867268 1.5301628e-05 0.012835216 0.13984883
0001c0 61 66 12 bd 54 48 07 3e 6d be d0 3d ff 43 eb bd
       -0.035742167 0.13211185 0.10192571 -0.114875786
0001d0 d0 0d 23 be e9 8a 3d 3c 19 c9 a2 bd c9 2e 0e 3e
       -0.15923238 0.011568763 -0.079485126 0.13885035
0001e0 18 c1 54 bd ca c0 0e bd f2 f0 10 3e f2 c0 22 bb
       -0.05194196 -0.034851827 0.14154413 -0.0024834243
0001f0 0b 45 db bd 0c 1d bd bc f1 b2 d8 3b 54 f8 12 3d
       -0.10706528 -0.02308514 0.0066131284 0.035881355
000200 f3 69 cb 3d c9 a1 d2 bc 75 5d ca bd 1b 5c 5a bc
       0.099323176 -0.02571191 -0.09881107 -0.013327624
000210 41 c6 1d bd 6b 92 74 3c ad e3 35 bb 15 c1 6e bc
       -0.038519148 0.014927487 -0.0027754114 -0.0145724015
000220 dd ba cf 3d b2 fe 12 be f2 2b 25 bc 7b 3b 8a bd
       0.10143063 -0.14354971 -0.010081278 -0.06749626
000230 8d 5f 06 3e 66 bd 93 bd ca d7 cb bd f5 31 ae bd
       0.13122387 -0.07213859 -0.09953268 -0.08505622
000240 c9 c2 de bd 1c cd 0a bd 54 c6 71 bd ab b2 88 3c
       -0.10876996 -0.033887014 -0.05902703 0.016686758
000250 a3 ee 5a bd 09 34 73 3d 82 3c 5b bd 74 ce f5 3d
       -0.053450238 0.059375796 -0.0535245 0.120022684
000260 dc c8 f7 bd f1 ee a5 bd c0 60 9d 3d b0 f9 45 bc
       -0.12098858 -0.08102215 0.07684469 -0.012083456
000270 8b 65 7a 3d 18 a3 c9 bd 4f ca e1 bd 91 44 98 3d
       0.061131995 -0.09845561 -0.110249154 0.07434953
000280 09 37 2a bd 69 d6 4b bd
       -0.041556392 -0.049765024

gru.bias_hh_l0 f4 [162]
000000 ae 13 72 3d e5 0f 33 3d 0a 45 82 bc 7e 55 b6 bd
       0.0591008 0.04371633 -0.015902061 -0.08903025
000010 29 5c 7a bd cf 85 d0 3d b6 5b 88 3d ac 04 d7 3d
       -0.061123047 0.10181772 0.066581175 0.10498938
000020 e7 77 15 3d b1 79 21 3d b0 87 a9 3d dc fa f6 bd
       0.0364913 0.039422695 0.082778335 -0.120595664
000030 6e fa 91 3c 17 a5 d6 bd b1 49 b1 3d 9b 2f 33 bd
       0.01781961 -0.10480707 0.08656634 -0.043746572
000040 21 96 90 bc 1b 7f a4 3d 91 94 b1 bd 58 a2 b1 bd
       -0.017649712 0.08032056 -0.08670915 -0.08673543
000050 af e2 99 3d c6 78 7e bd d3 cd 90 bd a9 76 87 3d
       0.075139396 -0.062126897 -0.07070508 0.066144295
000060 e5 b4 14 3c 64 e7 10 3d d6 a0 b4 bd bc 6e f3 3c
       0.009076332 0.03537692 -0.088197395 0.029715888
000070 7b 1b dc 3d 86 09 ce bd 6a 15 02 be b4 e7 78 bd
       0.10747429 -0.1006041 -0.12703481 -0.060767844
000080 db af 8a 3d 84 13 be 3c d7 09 81 bd 46 d5 d4 bd
       0.06771823 0.023202665 -0.06300705 -0.10392241
000090 e4 22 12 bd 69 36 b2 bd fa 12 9a 3d 4d 6e 70 bd
       -0.035677806 -0.08701784 0.07523151 -0.05869894
0000a0 e6 20 6d bd 1f 20 14 3c 17 d8 90 bc 19 08 90 3d
       -0.057892703 0.009040861 -0.017681165 0.070327945
0000b0 6c fc 24 3d 32 44 6e 3d 61 59 00 3e c8 f5 81 3d
       0.04027979 0.058170505 0.12534095 0.06345707
0000c0 65 a2 e1 3d 22 61 8b 3d 21 a2 0a 3e e4 00 b2 3d
       0.110173024 0.06805636 0.1353841 0.08691576
0000d0 dc ff 6b bd 9a e1 63 3d e9 52 9f bd a7 6a 91 3c
       -0.057617053 0.055635072 -0.07779486 0.017751051
0000e0 6e aa a1 bd 35 47 c5 bc b1 b4 1c 3d 13 44 87 3c
       -0.07893835 -0.024081806 0.03825826 0.016511953
0000f0 cd 6b bc 3d 6f 75 33 bb 0a 03 71 bd 76 db ad 3d
       0.09200249 -0.0027383228 -0.05884079 0.084891245
000100 35 9b b9 3d 5c 44 47 bd f8 8f 64 3c 2a 0f 6b 3d
       0.090628065 -0.048649177 0.01395034 0.05738751
000110 e1 eb f6 3d cf ea 03 3c 09 97 36 bc d4 a0 d9 3d
       0.12056709 0.008051588 -0.011144408 0.10626379
000120 61 c4 8b bd 43 ad f2 bc ca a9 03 be 26 de a0 bc
       -0.06824566 -0.029623633 -0.12857738 -0.019637179
000130 95 12 32 3d 68 e6 9d 3d b9 21 be bd 12 a6 32 bd
       0.043474752 0.07709962 -0.09283776 -0.04361541
000140 f1 ce e9 bc 13 33 8a bd fc f1 db bc 6e c0 8f ba
       -0.02854106 -0.06748023 -0.026848786 -0.0010967383
000150 f2 00 e6 bc 96 8b 32 3c bd 1f b1 3d a1 83 d5 bd
       -0.028076623 0.010897538 0.08648632 -0.10425497
000160 24 38 1a bd dc 0b 57 3b a0 e4 00 3e 0a e8 b4 bc
       -0.037651196 0.0032813465 0.12587214 -0.022083301
000170 5f 73 8f bd 70 89 00 bc 27 13 bf bd 22 6b 3f bd
       -0.07004427 -0.007845268 -0.09329825 -0.04673303
000180 27 99 83 bd d6 2a 3d 3c b0 0f 81 bc 20 38 22 bd
       -0.06425696 0.011545857 -0.01575455 -0.039604306
000190 2c 1d d6 bd 2e 58 6c bd a1 ec b5 3d 28 15 86 3c
       -0.10454783 -0.057701282 0.08883024 0.01636751
0001a0 b8 5f a0 bc 1b f7 83 bc 6d 11 35 bd da 49 de 3c
       -0.019576892 -0.01610904 -0.04420607 0.027134825
0001b0 a7 f4 c2 bc 06 a8 d0 3d b6 e2 4a 3d 65 5a 3b 3d
       -0.0237983 0.10188298 0.049532615 0.045740504
0001c0 34 39 c5 bc f0 c8 19 bd 82 11 79 3d 94 93 64 3c
       -0.024075128 -0.037545145 0.060807712 0.013951201
0001d0 6c 9d 9e bc 1e 46 b0 bd 1b 21 c0 3d 10 ff 77 bd
       -0.019362174 -0.08607124 0.09381314 -0.06054598
0001e0 06 6f d8 3c 74 d9 4c bd 48 b2 15 3e b9 b8 aa 3a
       0.026420128 -0.050012067 0.1461879 0.0013025022
0001f0 26 be f2 bd 5f 93 93 3a 4c 45 89 3d c8 f0 ab 3d
       -0.11852674 0.001125913 0.067026705 0.08395535
000200 4d 66 97 39 b0 5b a1 3d cc 6d 1a be 4d dd bf 3d
       0.00028877184 0.07878816 -0.15080947 0.09368382
000210 39 31 10 3d 13 28 0f bd 03 a6 09 be fc ed 4e bc
       0.035203192 -0.034950327 -0.13442235 -0.012629982
000220 61 4e d3 3d 8d ae 68 bd 0c 36 f2 3c c8 e4 bb bd
       0.10317684 -0.05680709 0.029566787 -0.09174496
000230 74 e3 22 bd 4f bc f1 3c 89 20 03 3c e8 4f 9c bd
       -0.039767697 0.029508738 0.008003362 -0.076324284
000240 bf 50 c0 3c 2c f1 05 be f0 71 24 3e a6 d3 a9 bd
       0.023476003 -0.13080281 0.16059089 -0.08292322
000250 7e 51 73 3d 41 9a c4 3d 2d 69 0e bd af 07 57 3d
       0.05940389 0.09599734 -0.034768272 0.052497562
000260 f2 8d 21 bd 24 0f 0c 3e 63 60 5b bd 21 73 e5 bd
       -0.03944201 0.1367765 -0.05355872 -0.112036
000270 13 51 90 3d 17 f7 35 bb ea 26 ba bc 3d 62 8f bc
       0.07046714 -0.0027765685 -0.022723634 -0.017502898
000280 1d 28 f8 bc 2c f1 e3 bd
       -0.030292565 -0.11129984

Wk.0.weight f4 [108, 118]
000000 0d ec 58 3e a1 4b a8 3d 5e b0 e9 bd 34 d6 67 bc
       0.21183796 0.0821755 -0.114105925 -0.014150191
000010 73 b5 a6 bd 4b 71 8c bd 69 3e 43 3e 0a be f8 bc
       -0.081400774 -0.068575464 0.19066776 -0.030364055
000020 af ae 50 3d 2c b6 99 ba 45 ff 1d 3c 55 80 1e be
       0.05094784 -0.0011727265 0.0096433805 -0.15478642
000030 20 7e 66 3d 52 33 fd bc 88 91 b5 3d b6 8f a4 3e
       0.056272626 -0.03090826 0.088656485 0.32140893
000040 5f 3f 79 bd bf c4 1b 3d a5 4d dc bd 45 d3 57 3e
       -0.06085145 0.03802943 -0.10756997 0.21076687
000050 7c 76 1c 3e 82 97 42 3e 30 63 ff bd f3 25 b3 bc
       0.15279573 0.19003108 -0.124700904 -0.021868682
000060 c6 e0 25 3e d6 79 bf bd 0e 6e fb 3d c4 bf 11 be
       0.16199026 -0.0934941 0.12276851 -0.14233309
000070 c2 9b 22 3e 3f 21 05 3d 5d f3 2c 3e 5f 0a 6f 3d
       0.1587973 0.03250241 0.1688971 0.0583595
000080 8c 31 54 3e c5 22 97 be f6 2b 9d be 07 e7 d0 bd
       0.20722026 -0.29518715 -0.30697602 -0.10200315
000090 e7 22 22 be e6 4f a8 bd 0e bd 46 bd 98 ca 8e bd
       -0.15833627 -0.082183644 -0.04852014 -0.069722354
0000a0 09 50 6c 3d 44 67 00 be 9a 0b 27 3d 6e 9d 4f bd
       0.057693515 -0.12539393 0.04078255 -0.050687246
0000b0 19 dd b7 3d 6f 8e a3 3e 7b 93 52 bd 85 ce a4 be
       0.08977718 0.31944606 -0.05141018 -0.32188812
0000c0 9b d8 9b 3c 0c 44 91 bc 9d 0b 94 bd 5e 7d 7b be
       0.019024184 -0.017732643 -0.072287776 -0.24559543
0000d0 bb 3e 07 3e d3 82 80 bd aa 62 b6 3d 39 53 09 be
       0.13207524 -0.06274953 0.089055374 -0.13410653
0000e0 81 47 8e 3c 02 fe 9b 3c f1 7c 9f bc 1b 2f 54 bd
       0.01736808 0.019042019 -0.019468756 -0.051802736
0000f0 74 2d 50 3e 4e 1a 10 3e c8 b0 ca 3d 4b d1 01 3c
       0.20329839 0.14072534 0.098969996 0.0079234345
000100 3e 96 c0 bc dc 33 10 bd 6d bb 13 3e 70 40 68 3d
       -0.023509141 -0.035205707 0.14426966 0.056702077
000110 76 c4 8b 3d ee 05 3c 3c 69 30 85 bd e7 9a 5d 3c
       0.06824581 0.011476023 -0.06503374 0.013525701
000120 ca e7 84 3d 68 82 b3 bc 4b b4 39 3e d3 a9 d3 3d
       0.06489523 -0.021912768 0.18135183 0.10335126
000130 46 27 c2 3d 02 9b 5e 3d 28 c9 c8 bb a1 bd c2 3d
       0.09480147 0.054347046 -0.0061274953 0.09508825
000140 dc 8a ec 3d 26 c8 b6 be 56 35 1f bd c5 4c 36 bc
       0.11549923 -0.35699576 -0.038869224 -0.011126702
000150 45 79 b0 bd eb 32 7e bc 51 92 fe bd ce 5a 59 be
       -0.0861688 -0.0155150695 -0.124302514 -0.21226045
000160 d5 32 d3 3d 6e 6c 12 3c 3a 6b 0c be d6 ae 8d be
       0.1031243 0.008936984 -0.13712779 -0.27672452
000170 c4 27 17 be 9d dd eb 3d 35 60 bc bd 84 78 49 3c
       -0.14761263 0.11516879 -0.091980375 0.0122968
000180 68 fa 9a bd 05 46 ab 3d 94 70 19 bd 48 07 a8 3e
       -0.075672925 0.083629645 -0.03746088 0.32818055
000190 ce 11 bd bd 84 70 2d 3d e2 2d 59 bd 87 b1 a0 bd
       -0.092319116 0.04234363 -0.053022273 -0.07846361
0001a0 9f d0 6b be 15 9c d5 bd 84 25 68 3e bc ab 05 3e
       -0.23028801 -0.10430161 0.22670561 0.13053793
0001b0 71 91 df bd f7 0c 45 bd a9 f6 63 be 11 30 62 bd
       -0.109164126 -0.048108067 -0.22262062 -0.05522162
0001c0 b4 b7 fa bc 9d 61 77 be f7 71 8f 3e 97 05 00 3d
       -0.030605175 -0.2415833 0.28016636 0.03125533
0001d0 10 4c fa 3d fa 52 d1 3c 50 f4 d7 39 50 2d 62 bd
       0.12221539 0.025552262 0.00041190023 -0.055218995
0001e0 1e 30 31 3a d4 ff 59 3b 90 ec 8a bc 77 3d 11 b9
       0.0006759184 0.0033264058 -0.016958505 -0.00013851175
0001f0 1d 2a 55 be 53 7d 8b 3c 17 0c 07 bd d1 dc 87 bc
       -0.20816846 0.017027533 -0.032970514 -0.016584786
000200 59 ce f9 bb 72 35 df 3c 33 f8 83 bc ea c4 10 3b
       -0.0076234755 0.027247164 -0.016109562 0.0022090026
000210 8e f8 71 bc 1e e3 69 bb 32 ed 82 bc 64 7c 8e 3c
       -0.014768733 -0.003568835 -0.015982244 0.017393298
000220 c4 66 aa 3c f4 56 2c bd 3c 72 5e 3e d1 9d 9d 3b
       0.020800956 -0.042075112 0.21723264 0.004810073
000230 67 e6 b9 3b a7 99 c8 3c 18 09 dc 3e 8f 8c 23 3d
       0.005673218 0.02448733 0.42975688 0.03992897
000240 ab a6 2d be 82 76 82 3d 4c c4 4d 3e 3d 16 5f bc
       -0.1695811 0.0637026 0.20094413 -0.013616142
000250 c6 81 30 bd 0f 24 8b 3c 20 e7 59 3c c0 ec 62 3e
       -0.04309251 0.016984968 0.013299733 0.22160625
000260 64 ea 69 3d 5f 49 02 bc 57 d2 8b bc 21 0a 46 bc
       0.057108298 -0.007952063 -0.017068071 -0.012087376
000270 9e 5b 0a bd 24 d7 88 3c bf 57 7f 3e 34 09 ef 3c
       -0.03377878 0.01670415 0.24935816 0.029179193
000280 7a 87 a4 3c a8 72 0d be 8d 42 d9 bb 9d 7a a6 39
       0.020084132 -0.13813269 -0.006630248 0.0003175334
000290 08 c8 8a bc 6a 25 c8 bd 3e d6 8d 3c d1 f1 ba bb
       -0.016941085 -0.09772761 0.017314073 -0.0057050963
0002a0 2f 4b 0b bd 4b 80 60 bc 5d a9 b7 bb af 43 89 3c
       -0.034007248 -0.013702462 -0.0056049065 0.016755907
0002b0 1f b5 a5 bc 80 3f e6 b7 c2 61 89 bc 8a 42 63 3c
       -0.020227967 -2.7447706e-05 -0.016770247 0.013870845
0002c0 41 3e 1c bb cf ca 3b bd cc 52 a5 bb 61 67 8d bb
       -0.0023840817 -0.04584771 -0.0050452705 -0.0043153022
0002d0 89 75 7e bd c0 f1 2d be ae 1c 61 bc 0e eb ee bd
       -0.06212381 -0.16986752 -0.013739748 -0.11665927
0002e0 ce be fb 38 4b 5c 68 ba f0 d4 87 3b 7c 7d 80 bc
       0.00012004153 -0.00088638504 0.004145257 -0.015684836
0002f0 f7 76 b1 bb 00 32 6a bc 3e bc 2e 3c 4b 73 bd bb
       -0.005415793 -0.0142941475 0.010664998 -0.0057815663
000300 b0 c9 9b ba b1 ef 16 bb 78 d3 5d bd 54 48 07 be
       -0.0011885669 -0.002303105 -0.05415675 -0.13211185
000310 28 86 6b 3c 44 9d 2c bd bb 59 0a 3d fe bc cc bc
       0.014375247 -0.042142168 0.03377698 -0.024992462
000320 53 8a 44 bb cc 3b 19 3d fb f4 1b 3d c8 33 4f be
       -0.0029989674 0.037410542 0.03807543 -0.20234597
000330 7e 21 1b be 28 d7 09 bc ed ff 34 bb 3e 3a 89 3c
       -0.15149495 -0.008413114 -0.0027618364 0.016751405
000340 1a 26 ad 3b 82 4d 8c 3c 38 e9 f6 bd 97 5e 31 bb
       0.005284083 0.017126802 -0.12056202 -0.0027064437
000350 80 4f 35 bb 17 95 b5 3d af 42 f6 3c 3e 5a 48 bc
       -0.0027665794 0.08866327 0.030061094 -0.012228547
000360 33 5b 8c 3c 53 6f 8c bc c8 1c 30 bb b0 19 99 bb
       0.01713333 -0.017142927 -0.0026872624 -0.0046722516
000370 28 45 71 3b 25 a5 ec 3c 4f 9e 89 39 0c 3b 8b 3c
       0.0036814902 0.02888734 0.00026248625 0.01699593
000380 2a 7c 85 bd 92 27 25 3d 38 a4 80 3c 5d 5b 89 3d
       -0.06517823 0.04032094 0.015703306 0.06706879
000390 38 38 a0 3e 44 18 bd bd f3 63 42 bb 8c 70 ed bb
       0.31292892 -0.09233144 -0.0029661625 -0.0072460826
0003a0 0a 72 0d 3d 36 73 1e be 89 ba 82 bd 18 8a 7f 3b
       0.034532584 -0.15473637 -0.06383235 0.0038992222
0003b0 56 ce b8 3d cf 44 45 3d 03 e6 8b 3b 95 0e 49 3e
       0.090237305 0.048161324 0.004269363 0.19634469
0003c0 51 c3 b4 3c e2 1d 22 bc 00 d5 fe bd f3 24 30 be
       0.02206579 -0.00989482 -0.1244297 -0.17201595
0003d0 cc 01 ba bd 86 68 86 3d 6c 9e 77 3d bd 05 9c bd
       -0.09082374 0.06562905 0.060453817 -0.07618282
0003e0 e3 7e 5c bd e0 06 f9 bd 74 eb c8 bd 56 0c 7f bc
       -0.053831946 -0.121595144 -0.09810534 -0.015566906
0003f0 19 54 78 bd 41 43 15 be f3 df dd 3d 31 91 d6 bd
       -0.060627077 -0.14576437 0.108337305 -0.10476912

Wk.0.bias f4 [108]
000000 a8 93 d4 3b 45 da 91 3b f0 ad 0e bb 88 37 1c 3d
       0.0064873286 0.0044510686 -0.0021771155 0.038138896
000010 86 e9 b4 bc 15 11 cc 3d 7a 02 b6 3d 8d 6e 4f 3b
       -0.022084009 0.09964196 0.08887191 0.0031651587
000020 c6 ef ab 3d af ed 36 bd 34 97 89 3b 62 7a 51 3d
       0.083953425 -0.044660266 0.004198933 0.051142104
000030 46 58 55 3c ba 9e 8f 3d 5a 0e 68 3c d4 9a 7f 3c
       0.013021534 0.070126966 0.014163578 0.015600879
000040 2e 1d 81 3d 2b 5b 93 bc 9c c1 0b bd 11 1c 17 bb
       0.06304394 -0.017987808 -0.034120187 -0.00230575
000050 a2 05 b4 3c 8d a0 c9 3d a9 56 d4 3c 93 a9 c6 3b
       0.021975342 0.09845076 0.025920229 0.0060626953
000060 90 ef c2 3d 07 68 90 3c 74 df a1 ba 89 03 32 3b
       0.09518349 0.01762773 -0.0012349919 0.0027162752
000070 06 75 f1 3b c6 47 a3 ba eb c5 cf 3a 1b c8 51 bd
       0.0073686866 -0.0012457303 0.0015851831 -0.051216226
000080 71 4c 6f bd 1c 2a d4 3b b3 c4 1d bb f8 ed 8f 3d
       -0.05842251 0.0064747464 -0.002407354 0.07027811
000090 a2 ca 0f bd dd 98 09 3b 58 88 ad bb d7 22 19 bc
       -0.035105355 0.0020995655 -0.0052957945 -0.009346685
0000a0 98 f2 b2 3d 04 1c c2 bc 31 41 2c ba bc af 1b 3c
       0.08737677 -0.023695 -0.00065709936 0.009502348
0000b0 fc 2a ba bc 44 f8 12 bc d8 ba 0c 3d 16 11 05 3d
       -0.022725575 -0.008970324 0.034357876 0.032486998
0000c0 f4 3e 20 3c a8 8e 33 bd 5e d3 b3 3d 07 cd ec 3d
       0.009780634 -0.04383722 0.087805495 0.11562543
0000d0 e3 20 81 bc 28 84 50 3b 4c 21 b5 3d c0 64 2d 3d
       -0.015762752 0.0031817053 0.088442415 0.04233241
0000e0 39 58 c6 3d 6b c7 60 bd 13 bf 5a 3d cf 2e 45 bd
       0.09684796 -0.05487768 0.05340488 -0.048140343
0000f0 4b 03 cb 3d 5f a2 41 bb 44 ac b8 3d 70 c2 d7 3a
       0.099127375 -0.0029546244 0.09017232 0.0016461145
000100 ce 29 8a bc 56 ff 14 3c b3 ef 01 3d f0 6f 5e 3d
       -0.016865637 0.00909408 0.031722736 0.05430597
000110 15 1f 88 3d 1e d5 14 bd dc e0 ed 3d c7 bb 35 3c
       0.066465534 -0.036336057 0.11615154 0.011092133
000120 e8 c0 08 bd 0e b8 ce 3c dd 38 ea bc 11 4f 86 3d
       -0.033387095 0.025234248 -0.028591568 0.065580495
000130 c7 06 be bc cc 85 7f bc fb 34 0f bd c0 b8 62 3c
       -0.023196591 -0.0155958645 -0.034962635 0.013837993
000140 86 14 eb 3d 10 18 27 3c 2f 76 a3 3d 3e aa f0 3c
       0.11478524 0.010198608 0.07981526 0.029378053
000150 37 d5 e7 ba a5 ba 5b bd 83 51 81 ba 59 be 08 3d
       -0.0017687444 -0.053644795 -0.0009866211 0.033384655
000160 e0 7e 17 3c 38 8f d4 3d 88 c1 af 3d 26 38 a8 3c
       0.009246558 0.10378879 0.08581835 0.020534586
000170 fe 5b 8c bc bf 75 f2 bb a3 d3 ea 3d ad 35 75 3d
       -0.017133709 -0.0073992903 0.11466148 0.059865642
000180 c0 c3 10 3d 25 b6 ce 3c 49 6a 28 3d 3a d7 c6 3c
       0.03534293 0.025233338 0.041116986 0.02427255
000190 ae b3 aa 3d f4 a9 0e 3c 46 75 8e 3d 70 4f f6 3c
       0.083350524 0.008707512 0.06955962 0.030067176
0001a0 bb e2 86 bc 6e 09 c9 bc fc 41 fc 3a 76 73 14 bc
       -0.016465535 -0.02454063 0.0019245739 -0.009060731

predictor.0.weight f4 [2, 32]
000000 f9 ab 86 be ce ed 50 be c0 19 9c 3e df 30 83 3f
       -0.2630308 -0.20403215 0.30488396 1.0249289
000010 54 b0 07 3e ac 46 91 be 4e 01 b3 3f cc a2 81 bd
       0.13250858 -0.2837423 1.3984773 -0.06329879
000020 03 fc 8c bd 5e 66 f9 be ec e4 98 bc 1a 83 dd bf
       -0.06884005 -0.48710912 -0.018663846 -1.7305634
000030 d1 9c b3 be ac 66 3c bf 8b 77 dd be 0c 60 0f 3f
       -0.3508058 -0.73594165 -0.43255267 0.5600593
000040 91 20 7d be 39 d6 3b bd cc 7f da be c6 4f ea 3e
       -0.24719454 -0.045858596 -0.42675626 0.45763987
000050 fe 52 b5 3e 99 79 3f 3f 10 20 9d 3f 25 38 9c 3e
       0.3541488 0.7479492 1.227541 0.30511585
000060 ab 7e d1 bf b0 16 58 3e 93 0f 22 bf a6 b7 b0 3f
       -1.6366781 0.21102405 -0.63305014 1.3806045
000070 52 2b 10 3f 4e de 63 3f f9 27 b9 3e b9 a7 3c c0
       0.563161 0.89011085 0.3616331 -2.947737
000080 52 b1 62 bf 05 10 e3 be 33 6d 06 3f d9 46 49 3d
       -0.8855182 -0.4434816 0.52510375 0.04913983
000090 e2 98 df 3f 9b 68 ab bb a2 75 35 3e d9 15 4d bf
       1.7468531 -0.005230976 0.17720655 -0.8011146
0000a0 90 80 15 bf d2 2e 3d 3e 70 8e 9d be bf e9 a3 3f
       -0.58399296 0.18474892 -0.30772734 1.2805709
0000b0 61 03 de 3f f6 19 33 3f cf c6 9d bf 23 f2 8b bf
       1.7344781 0.6996149 -1.2326297 -1.0933269
0000c0 3d af c7 bb 0c cb b0 bf c9 c3 19 3e 33 31 0c be
       -0.006093888 -1.3811965 0.15016092 -0.13690643
0000d0 de 82 bf 3f 86 4d f3 bf 2a e9 a6 3e 4a 51 b6 bf
       1.4961812 -1.9008033 0.32599765 -1.4243557
0000e0 90 ba 41 3f 91 ca 0e c0 86 6c c4 bf 52 2e b6 be
       0.75675297 -2.2311137 -1.5345619 -0.35582215
0000f0 5b ef 9d 3f be 1e 9e 3e 1c 27 2a bf 47 3d 67 3f
       1.233867 0.3088283 -0.66465926 0.90327877

predictor.0.bias f4 [2]
000000 b2 02 b2 3d ef 12 17 be
       0.0869192 -0.14753316
